posture_model.pth (torch, 15556 bytes, 6 tensors)

net.0.weight f4 [64, 14]
000000 73 67 84 3e 80 6e 41 3f 25 38 21 3f af 95 e6 bf
       0.25860175 0.75559235 0.62976295 -1.801443
000010 4f fb 93 bf 49 5a f5 be 84 71 59 be 9c 84 aa be
       -1.1561068 -0.47920445 -0.21234709 -0.33304298
000020 92 52 1f bf 72 45 53 bf ef ef 24 bf 72 a0 16 bf
       -0.6223537 -0.8252784 -0.6442861 -0.5883857
000030 09 01 7d bf d0 1c 4d bf a8 70 77 be fe ea 7f 3e
       -0.98829705 -0.8012209 -0.24164069 0.24991986
000040 20 e6 42 be 60 3b 6e 3c 58 6d 19 3d 04 69 8e 3d
       -0.19033098 0.014540523 0.037457794 0.06953624
000050 3e 61 95 bd 9d 10 0a be 20 c9 4e 3c 10 e5 89 3d
       -0.07293938 -0.134829 0.012621194 0.06733143
000060 6f db 62 be 80 ed 92 3c b6 1e 9c bd 80 dd 6f bb
       -0.2215402 0.017935514 -0.07623045 -0.003660053
000070 38 b4 7a 3d a6 61 c1 bd f4 c2 da bd 6a c1 68 3e
       0.061207026 -0.09442453 -0.106817156 0.22730032
000080 b2 ca 3d be 74 3d 47 be 2d 6c 5f be 38 de 09 be
       -0.18534353 -0.19457036 -0.2181861 -0.13463676
000090 ca 40 28 be 46 64 16 be e2 dd 77 3e d8 9a 54 bd
       -0.16430965 -0.14686689 0.24205735 -0.051905483
0000a0 00 55 ab 3b 0c cc 2f bd 7a c5 36 3e 04 0b e1 bd
       0.0052286386 -0.042919204 0.17848769 -0.10988429
0000b0 ea b6 13 3e 40 f6 77 bc 00 56 30 3e 46 bd 7c 3e
       0.14425245 -0.015134394 0.17220306 0.24681577
0000c0 dc b9 ea 3d ec 38 53 bd 90 76 1b 3d 75 aa 07 be
       0.11461231 -0.051567957 0.037954867 -0.13248618
0000d0 4c 53 a2 3d e0 1d 00 3c 40 6c fb 3b 76 2f 6d 3e
       0.07926044 0.007819623 0.0076728165 0.23162636
0000e0 70 6a 2c 3d 20 30 b4 3c 80 32 a2 3c dc 41 20 3e
       0.042093694 0.021995604 0.01979947 0.15650123
0000f0 88 e9 fa bd 90 b4 76 3d 38 f9 bf bd 80 d1 cc 3d
       -0.12251574 0.06023079 -0.093737066 0.100008965
000100 63 6d 88 3e a6 1d 09 3e c4 f7 f9 3d 9c 9c 84 3d
       0.26645955 0.13390216 0.12205461 0.06475183
000110 e5 de 7e be e0 57 85 3d 2d 03 d4 bf 44 25 e2 bf
       -0.24889715 0.065109015 -1.6563469 -1.7667623
000120 84 5b 7b 3d 15 13 a8 3f 2e 73 35 bf 59 9a d2 3d
       0.061366573 1.3130823 -0.70878875 0.10283346
000130 33 5f ae bf 3a 4f c9 3e 4b 16 22 bf 77 70 6b bd
       -1.3622802 0.39318258 -0.63315266 -0.0574803
000140 6e fd 14 bf 06 d5 fe 3e 66 0b de be 49 80 88 bd
       -0.58199203 0.497719 -0.4336807 -0.066650935
000150 d9 6d 92 be 3d e9 b4 3f a6 19 85 be e3 bf e4 bf
       -0.28599432 1.4133679 -0.2599613 -1.7871059
000160 e0 7c ce 3f 1c 02 50 3f fa f5 4d 3f 9f 03 44 bf
       1.6131859 0.8125322 0.80453455 -0.76568025
000170 60 a9 11 3f 80 bb dd 3e 43 a5 2c 3f e8 bb 6c be
       0.5689907 0.43307114 0.6743967 -0.23118556
000180 79 6e bb bd 59 9f a4 be 12 ca 4b 3e 0c b7 ac 3d
       -0.0915193 -0.32152823 0.19901302 0.08433351
000190 a6 c2 0d 3e 6f 73 85 be 7a 48 58 3e ac 68 f1 bd
       0.13843784 -0.2606463 0.21121398 -0.11787543
0001a0 28 4c a9 3d a6 93 66 be 34 f0 0c 3e 02 c0 17 be
       0.08266479 -0.22517261 0.13763505 -0.14819339
0001b0 b0 54 1a be 60 c2 0c 3d 10 40 8f bc 50 e6 5c be
       -0.15071368 0.034365058 -0.017486602 -0.21572232
0001c0 5a 24 1b 40 c1 10 81 bf 96 11 8c bf cc ad 66 bf
       2.4240937 -1.0083238 -1.0942867 -0.90108943
0001d0 ad bd 76 3f 3f 15 d0 be 2c 2c 49 bf 09 b9 96 3e
       0.9638317 -0.4064121 -0.78583026 0.29438046
0001e0 32 0b c5 3e 62 3e b2 3d b2 c6 25 bf a2 21 55 3e
       0.38485104 0.08703305 -0.6475631 0.20813611
0001f0 95 da 91 3e 17 ad 3a 3f ec 20 4e 3e 6c 8e 67 3e
       0.28487077 0.72920364 0.20129746 0.22612923
000200 c0 f6 b5 bd 1a 28 7e 3e 62 f7 2f be 34 a1 17 be
       -0.088849545 0.24819985 -0.17184213 -0.14807588
000210 90 24 a9 bd 20 6f ad 3d 88 cd fb bc c8 aa 7b 3d
       -0.08258927 0.08468461 -0.030737653 0.061442167
000220 05 a9 80 3e 9c 7c 35 3e 08 a7 65 3e bc f5 39 bd
       0.25128952 0.17723316 0.22426999 -0.045400366
000230 20 f1 63 3c 48 27 c7 bc 43 f7 19 be e2 49 3e be
       0.013912469 -0.024310723 -0.15035729 -0.18582872
000240 b2 24 74 3e 60 27 22 bd d0 62 5e bd c8 23 28 3d
       0.23842123 -0.039588332 -0.054293454 0.04104975
000250 bc d7 62 be c2 d6 74 3e 0c 3e 28 bd ae ba 23 be
       -0.22152609 0.23910049 -0.041074798 -0.15989181
000260 60 f5 f4 3d 08 d5 ec bd 19 c1 60 3e b4 9e 1c bf
       0.11960864 -0.1156407 0.21948661 -0.6117966
000270 cd 4c bb bf 74 bf e9 3e 24 50 1a 3f a9 1f 10 3f
       -1.4632813 0.4565388 0.60278535 0.5629831
000280 96 14 a5 be d4 9a 55 3e 41 53 14 3f 9c 39 3f 3f
       -0.32242268 0.20859843 0.57939535 0.7469728
000290 42 de 9a be ee bb 93 3e 6b cc 91 3e eb dd 8f 3f
       -0.30247694 0.28854316 0.2847627 1.1239599
0002a0 18 94 74 bf 76 b5 eb bf 2b 65 36 c0 a6 cf 84 3f
       -0.95538473 -1.8414752 -2.8499248 1.0375869
0002b0 34 38 3f 3e d4 72 fd bd b2 a2 c4 bf 21 a5 af 3d
       0.18673784 -0.12375417 -1.5362151 0.08576418
0002c0 70 2e c0 3e 47 d1 5a be 16 30 ce be 8f d4 ef bd
       0.3753543 -0.21368895 -0.40271062 -0.11710464
0002d0 6d e7 50 bd df 66 05 bd 5b 39 0d 3e 4a a4 09 be
       -0.051001955 -0.03256881 0.1379141 -0.13441578
0002e0 f2 91 ba 3c 5d c0 d3 bd 6e a0 97 3d 19 a5 6c 3b
       0.02277467 -0.10339425 0.074036464 0.0036109148
0002f0 ef 2e cc 3d 2e 61 c0 3d e9 10 4e 3e d4 38 71 be
       0.099698894 0.093935356 0.20123638 -0.23556834
000300 27 31 66 be 60 fe 6a bd 5d ba 28 3e 88 5b b5 bc
       -0.22479688 -0.057371497 0.16477342 -0.022138372
000310 60 61 1d 40 9d 83 49 bf 50 7f c8 bf 6b ab 19 bf
       2.4590683 -0.7871645 -1.5663853 -0.6002719
000320 80 9b d3 3e 9f 98 df be 29 d8 11 bf e9 5f 60 3c
       0.41329575 -0.43671128 -0.5697046 0.013694742
000330 f9 6c 38 3c 95 ac 95 be 0c af 46 bf e9 46 21 3e
       0.01125645 -0.29233232 -0.7761085 0.15749706
000340 fb e1 7c 3e 7a 91 15 3f 13 da d2 bf df db 2b 3f
       0.2469558 0.58425105 -1.6472801 0.6713237
000350 0b 71 ca 3f 67 86 87 3f ad 8b a9 bf f5 78 cc 3e
       1.5815748 1.0587891 -1.3245751 0.39936033
000360 ce f4 a4 3f 9d 50 dd 3c 14 e3 31 bf 19 57 88 3d
       1.2887208 0.027015978 -0.6948712 0.066572376
000370 ee 79 39 3f ab a8 41 3e 7b a7 5b 3e 50 12 cd be
       0.72451675 0.18911998 0.21450607 -0.40053034
000380 bb b2 39 3f 35 96 4f bf f6 70 ac bf 20 60 8e 3e
       0.72538346 -0.8108857 -1.3471973 0.27807713
000390 e4 61 80 3e ce 1c b7 3e f3 29 12 bf 4c 36 04 3f
       0.25074685 0.35764164 -0.5709526 0.5164535
0003a0 c5 ea 84 bd e1 32 36 3f ed cd a2 be a5 13 4a 3f
       -0.06490091 0.71171385 -0.31797734 0.78936225
0003b0 11 fa 9e 3e 6a 8a 8b 3f f4 dc 4c 3f d8 d5 82 3f
       0.3105016 1.0901616 0.8002465 1.022151
0003c0 38 81 e1 3f ab e0 2e 3f 65 15 8c bf 13 19 8d bf
       1.761756 0.68311566 -1.0944029 -1.1023277
0003d0 06 0f 2c 3e 08 9b 99 3e 83 ae 0f bf d2 73 b8 bf
       0.16802606 0.30001092 -0.5612566 -1.4410346
0003e0 2d ad 14 3c f6 0d 5a bf 3a c4 1a bf 02 d3 cb bf
       0.009074491 -0.8517755 -0.6045567 -1.592377
0003f0 2e 3f f0 3e cf 73 19 bf 60 a7 95 bf 9c c8 8f 3f
       0.46923202 -0.59942335 -1.1691704 1.1233096

net.0.bias f4 [64]
000000 fd e2 f3 3e e3 72 5a be 43 ff 86 be 64 9d 81 be
       0.47634116 -0.21332888 -0.26366624 -0.25315392
000010 74 cf 4f be 72 f4 26 3c 43 02 d4 bb d6 09 e9 bd
       -0.20293981 0.010190116 -0.006469996 -0.11378829
000020 12 97 e5 3e 52 1c 4f be 19 c0 71 be e8 35 61 3c
       0.4484182 -0.20225647 -0.23608436 0.013745762
000030 7c 09 6c 3c 30 28 94 bd a9 0a af 3e 75 e9 d9 3e
       0.014406558 -0.07234228 0.3418782 0.42560926
000040 1b 66 b1 3e 82 06 e2 3e 79 3a 7e 3e df 82 ae bc
       0.34648213 0.4414559 0.24826993 -0.021302639
000050 8e cd 32 be 77 dd d6 3e 59 bc eb 3e 67 da b8 3e
       -0.17461225 0.4196584 0.46042135 0.36104128
000060 2f 0b ca 3e 3a dd 25 be 13 91 ae 3e 98 56 df bd
       0.39461657 -0.16197672 0.34095058 -0.10905188
000070 e6 e5 0e bd dd 48 88 be 44 47 dc bd 0e 0e fb 3c
       -0.034887217 -0.2661809 -0.1075578 0.03064635
000080 44 0a d2 3e dc 4d 98 3b b3 f9 02 3f 0b ca 0e 3f
       0.41023457 0.0046479534 0.5116226 0.55777043
000090 30 a1 d2 bd 2f 2c d0 3e 39 d6 5d be ee 92 20 3e
       -0.1028465 0.4065871 -0.2166375 0.15681049
0000a0 8c 78 9b 3c 00 64 82 3b 9c 68 8a 3e 88 84 ea bd
       0.01897838 0.003979206 0.27032936 -0.114510596
0000b0 dd d6 58 bb 4e 71 ee 3e 1b fb 20 3d 54 14 ba bc
       -0.0033087053 0.4657082 0.039301973 -0.022714771
0000c0 5e 10 06 bd f8 1a 87 3e b6 66 26 bb 5e 3c c7 bb
       -0.032730453 0.26387763 -0.002539081 -0.0060801944
0000d0 ae 65 20 be 78 d4 cb bc f8 ed 07 3e 39 4e 97 3e
       -0.15663788 -0.024881586 0.13274372 0.29551867
0000e0 27 30 fe 3e 81 74 53 3e 79 57 f3 3b 37 75 83 be
       0.49646112 0.20649911 0.007426199 -0.25675365
0000f0 ec 15 21 be 3e fe 1a 3e 91 f6 28 3c 84 12 40 be
       -0.15731019 0.15136048 0.010312692 -0.18757063

net.2.weight f4 [32, 64]
000000 28 67 c2 bd 88 d3 f2 bc ac e6 c2 bd 40 72 71 3c
       -0.09492332 -0.029641882 -0.095166534 0.014736712
000010 80 f8 59 bb e7 74 47 bd 20 8d c6 3c 9a f7 9e 3d
       -0.003325969 -0.04869547 0.024237216 0.0776207
000020 6e cb f7 bb 2a 99 ed 3d b0 48 72 3c 24 c8 d8 bd
       -0.0075620925 0.11601479 0.014787838 -0.10585049
000030 9f 75 f2 bc 38 94 47 bd d9 de a6 3c fc 2a 20 3d
       -0.029597102 -0.048725337 0.020369934 0.039103493
000040 a5 0d ca bd 40 4b 5f 3d 25 31 9c 3d 91 01 2f 3d
       -0.09865884 0.054515123 0.07626561 0.042726103
000050 d0 df da bc 00 ec 61 3b ee 4e 68 3d 0c cf 6e bd
       -0.02671805 0.0034472942 0.0567159 -0.058302924
000060 05 e2 9b 3d 00 b0 5f b9 2c 52 c5 bd 70 8c e9 3c
       0.07611469 -0.00021332502 -0.09634814 0.028509349
000070 aa 45 58 bd 60 a0 c7 bc 60 36 1b bc 52 28 bc bd
       -0.05280081 -0.024368465 -0.009473413 -0.09187378
000080 49 28 4e bc 53 87 da bc 6e 05 ff bd d4 2d 47 3c
       -0.012582847 -0.026675856 -0.124522075 0.012156922
000090 c0 31 7a 3d a8 9d af 3d c0 9e eb bd 21 73 9c bd
       0.0610826 0.085749924 -0.115048885 -0.076391466
0000a0 4a 04 92 bd dd 2e 61 bd e2 92 ea 3d 50 a2 44 3d
       -0.07129724 -0.054976333 0.11453797 0.048006356
0000b0 b4 0c d4 3d a4 a5 4d bd f7 fc 51 3c 90 8c 40 bd
       0.103539854 -0.050206795 0.012816659 -0.04700905
0000c0 5c d0 b6 3d fa d3 df bd ea f7 d5 3d 1c 9b 11 be
       0.0892646 -0.10929103 0.104476765 -0.14219326
0000d0 86 ef de 3d 9f ab db 3b c0 74 75 bd 18 fd 60 bd
       0.10885529 0.0067038084 -0.059925795 -0.05492887
0000e0 ec 26 0f be 18 2a 53 3d 3d 77 3a bd f0 f8 e2 3c
       -0.13979691 0.051553816 -0.04552387 0.027706593
0000f0 bc 03 46 3d 9a 19 70 3d aa f5 00 bd 00 c1 b8 3d
       0.048343405 0.058618166 -0.031484284 0.09021187
000100 ac ec 33 3d a0 dc b2 3b 40 f2 c3 bb 20 e8 99 3d
       0.04392688 0.0054584295 -0.005979806 0.075149775
000110 30 46 d1 bc 30 e5 93 3d a0 37 b8 bb 10 2f 32 bc
       -0.025546163 0.072214484 -0.0056218654 -0.010875478
000120 a8 5c 69 3d 9a a7 b4 3d 66 28 b7 bd a0 b0 3f bc
       0.05697313 0.0882103 -0.08943252 -0.0116998255
000130 fa 21 e3 3d b0 7b 0c 3d c0 ef 9c bd e8 80 c1 bd
       0.11090465 0.034297645 -0.07662916 -0.09448415
000140 88 ce 09 3d cc 7b 7e bd f0 0e 94 bc 38 f2 90 3c
       0.03364423 -0.06212978 -0.018073529 0.017693624
000150 e0 91 2f 3c 4a 91 e3 bd 84 f4 c9 3d b8 a6 fb bc
       0.010715932 -0.11111696 0.09861091 -0.030719146
000160 74 88 81 3d 4a 4c d1 bd 9a 38 f1 bd e4 a4 37 3d
       0.063248545 -0.10219629 -0.11778374 0.044834986
000170 34 ef 14 3d c8 5d d1 bc d4 42 1f 3d 90 24 78 3d
       0.036360934 -0.025557414 0.03888209 0.060581744
000180 30 eb c8 3c fe 91 d6 3d 24 4d bf 3d 38 ee 77 bd
       0.024526209 0.104770645 0.09340885 -0.060529917
000190 9e a8 a7 bd c0 f9 c5 bd ea d4 f0 3d e0 7f 8e bb
       -0.08186458 -0.09666777 0.1175936 -0.00434874
0001a0 b8 c0 17 bd 74 ec 5c 3d 20 bf cb bb 2c b1 16 bd
       -0.037049025 0.053936437 -0.0062178522 -0.036790058
0001b0 54 9e f5 bd 16 39 fb 3d 28 24 eb 3d 48 15 f7 bd
       -0.11993089 0.12266748 0.11481506 -0.12064606
0001c0 ec 8b e2 bd 40 f2 b8 3c 80 84 3c 3b b0 9f 71 bd
       -0.11061844 0.022576451 0.00287655 -0.05899018
0001d0 08 ff 1c 3d 5c d7 af 3d 40 0f 68 3c 30 7c 03 3d
       0.038329154 0.085859984 0.014163792 0.032100856
0001e0 d4 35 9d bd 7e a0 b9 bd fc 4f bd bd 94 c8 be bd
       -0.076762825 -0.090638146 -0.092437714 -0.09315601
0001f0 dc 41 b7 3d f0 c0 ff bd 4a 06 c3 bd f2 68 ff bd
       0.089481086 -0.12487972 -0.09522684 -0.124711886
000200 94 e2 b8 3e 30 a7 63 3d fc 52 78 3d e4 e8 5d 3d
       0.36110365 0.055579364 0.060626015 0.05417718
000210 80 62 91 3d 5f e8 24 bf e3 de 82 bf 84 05 8f 3d
       0.070988655 -0.6441707 -1.022427 0.06983474
000220 f6 4d d9 3e 34 e8 17 bd 38 77 e2 bc 99 94 02 3e
       0.42442292 -0.03708668 -0.027644739 0.12751998
000230 c4 0c c6 3e 26 69 ca bd 00 95 ae 3e 72 b5 1c be
       0.38681614 -0.09883337 0.34098053 -0.15303591
000240 17 49 a2 3e 93 74 21 be e0 81 61 3e ca 09 1e 3f
       0.31696388 -0.15767126 0.220222 0.61733687
000250 52 b6 87 bd 07 d2 cf 3d 3d d8 a7 3e cb 29 88 be
       -0.06626572 0.101474814 0.32782164 -0.26594386
000260 78 1c 25 3f a8 58 ec 3c 8a 65 aa 3e e0 37 76 bc
       0.64496565 0.028850868 0.33280593 -0.01502797
000270 c8 af b6 3e a4 8f b0 3d 90 ab b7 3c e5 30 e8 3c
       0.35680985 0.08621147 0.022420675 0.028343627
000280 b5 1e 1c 3f e4 aa 0b be 24 66 0e 3f a9 18 b5 3e
       0.60984355 -0.13639408 0.55624604 0.35370377
000290 74 99 d1 3d d2 56 92 bd 90 d3 8e bd 96 c6 a0 be
       0.10234347 -0.07145466 -0.06973946 -0.3140151
0002a0 eb d1 ce 3d 39 20 06 bc d4 b1 b4 3e 5c fe f9 bd
       0.100986324 -0.008186393 0.35291922 -0.12206718
0002b0 90 93 2e bf fa c2 ce 3e 20 9f 4a be 1d 25 a2 be
       -0.6819391 0.4038313 -0.19787264 -0.3166894
0002c0 a8 5f c8 3e e6 2c 2a 3f 64 e1 56 bf 01 15 e3 be
       0.3913548 0.6647476 -0.8393767 -0.44351962
0002d0 32 46 be 3d a5 5b fb 3d 22 44 ee bd 5c 32 cf be
       0.092907324 0.12273339 -0.11634089 -0.4046811
0002e0 c8 8b 79 3e 24 60 66 3f 81 07 8c bc 60 71 67 bd
       0.24369729 0.8999045 -0.017093422 -0.056504607
0002f0 da 08 bb bc 26 49 ca 3e ef 59 78 bf ea bd d6 bd
       -0.02283137 0.39508933 -0.9701223 -0.10485442
000300 02 40 06 3f 60 3d 7d bc 5e 7e fe 3d 00 af 82 3a
       0.5244142 -0.0154565275 0.124264464 0.0009970367
000310 06 7f 89 bd ed d9 65 3d a8 27 8b 3e 38 37 b9 3c
       -0.06713681 0.056116033 0.27178693 0.022609338
000320 9c cc 10 bd 8c 64 bf 3d d0 ab 63 bd 65 27 3d bf
       -0.03535138 0.0934535 -0.055583775 -0.73888236
000330 7d 96 bf be 6d 92 84 bd a0 7c d9 bd a6 77 14 3f
       -0.374195 -0.06473241 -0.106194735 0.5799507
000340 4b 3c 3a be d7 3b 1a 3f 61 3b 98 bd 28 38 5b bf
       -0.18187062 0.6024756 -0.07433201 -0.8563256
000350 3c 97 7f 3d 70 bc 48 3f 6e dd 49 bc 6c e5 43 3f
       0.062400088 0.7841253 -0.012320859 0.76521945
000360 b3 01 c4 3c 54 4e 35 3d 86 b1 6a be 40 ae fa 3c
       0.023926592 0.044264153 -0.22919282 0.030600667
000370 13 a9 12 bd 48 ec 3a bd 00 16 8f b9 f3 09 1f bf
       -0.035805773 -0.04563549 -0.00027291477 -0.62124556
000380 18 14 37 3d 54 a2 2a bf a9 67 40 3e 99 11 c1 3b
       0.044696897 -0.66653943 0.18789543 0.0058919904
000390 d8 88 f1 bd 55 a2 26 3f 20 14 d5 bb 56 cb 2f 3f
       -0.11793679 0.6509145 -0.006502643 0.6866964
0003a0 35 2e 1f bf 71 a9 ad be 47 90 1c 3f e8 48 a4 bd
       -0.6217988 -0.33918336 0.6115765 -0.08021718
0003b0 b5 93 8b 3d fd d2 8d 3e 8f cb 75 be 26 a3 6f be
       0.06815282 0.27700034 -0.24003433 -0.2340208
0003c0 85 10 e9 be 7a ac 66 3e a3 22 5d 3e 1b 6e d3 bd
       -0.45520416 0.22526732 0.21595244 -0.10323735
0003d0 e4 3b b5 3d 43 09 24 bf f5 cd a5 3e 78 53 30 3f
       0.08849314 -0.6407663 0.32383695 0.68877363
0003e0 35 bd b6 3e 3f b1 b8 be 35 bb d8 be 98 32 db 3d
       0.35691229 -0.36072728 -0.42330328 0.10703009
0003f0 10 e4 03 bd 33 b8 5a be 2f 28 93 3e e2 31 da bd
       -0.03219992 -0.21359329 0.28741595 -0.10654046

net.2.bias f4 [32]
000000 8e 05 e9 bd 20 ab c0 bd b9 b2 4b 3e 58 b5 8e 3e
       -0.113780126 -0.094076395 0.19892396 0.2787273
000010 08 22 0a be 68 9d 7b bd 95 39 3a 3e 8d 46 fd 3d
       -0.13489544 -0.06142941 0.18186028 0.12366972
000020 88 e6 0c 3e 77 c5 0c 3e d6 c4 f2 3d 06 af 08 bd
       0.13759816 0.13747202 0.1185395 -0.03337004
000030 5b 35 cc bd 9f 81 9b 3d 66 97 86 bd 16 d8 64 bd
       -0.09971114 0.07593083 -0.06571846 -0.055870138
000040 ad 36 7a 3e 8d 56 cf 3b 6d 94 6a 3e ea 44 ad 3e
       0.2443492 0.0063274563 0.22908182 0.3384164
000050 ec 8d 08 bd d1 fa 06 bd e4 0e 00 be b7 6e f2 3d
       -0.033338472 -0.03295404 -0.1250568 0.118375234
000060 e8 20 d7 bd 67 88 fe bd 4f ee 03 be 8e 88 89 bd
       -0.10504323 -0.124283604 -0.12883876 -0.06715499
000070 88 d0 7d 3e f7 69 08 bb 9e d0 87 be 19 2b 7c bd
       0.2478658 -0.0020815113 -0.2652635 -0.06156454

net.4.weight f4 [5, 32]
000000 2e 8b fe 3d 98 d3 c6 bc a9 77 98 3e bb e0 d0 3e
       0.1242889 -0.024270818 0.29778793 0.40796456
000010 91 d0 db 3d f7 b4 0d 3e 7b 79 5d bf 4f 61 52 3e
       0.1073314 0.13838564 -0.8651349 0.20544933
000020 ae a2 8d bf 86 96 6c bf 1b ae 90 3e 90 48 7a 3a
       -1.1065271 -0.9241718 0.28257832 0.0009547556
000030 e2 2d 2e be cd b3 c9 bf 90 48 07 3d eb 85 27 3e
       -0.1700969 -1.5757996 0.033028185 0.1635968
000040 73 54 86 3e 43 4c 91 be 71 14 74 3f 80 09 95 3f
       0.26236305 -0.28378496 0.9534369 1.1643524
000050 66 07 8e 3d 42 4d 41 bf 7a 20 b4 bf 11 39 fe be
       0.06935005 -0.7550851 -1.4072411 -0.49652913
000060 c2 1b 9c bd 37 0c 5c 3c fa 93 89 3d 9f 4c 21 3e
       -0.07622482 0.013430647 0.067176774 0.15751885
000070 42 b2 86 3e e0 0a 57 bf cb b4 89 3f 3b 6a 0f 3e
       0.26307875 -0.8400097 1.0758299 0.14005367
000080 82 39 a5 bd 59 a5 33 3e e0 8e 2e be d1 55 18 3e
       -0.08067609 0.17543544 -0.1704669 0.14876486
000090 20 c0 00 be 11 cc e3 bd d8 1a 88 bf 3e ee c0 3e
       -0.1257329 -0.11122907 -1.0633192 0.37681764
0000a0 7b 82 4f bf 25 ba bf be 10 73 fb 3e ca a7 e8 bd
       -0.8105847 -0.37446705 0.49111223 -0.11360128
0000b0 0e 41 fd bd 0b fb 84 3e 70 2e 75 3d f9 2e b6 bd
       -0.12365924 0.2597278 0.05985874 -0.08895678
0000c0 2b 0e ee be bb 61 73 bf 0a 11 36 c0 81 34 e7 bf
       -0.46495184 -0.95071 -2.84479 -1.8062898
0000d0 7e a9 89 3d b8 e5 17 3f 7c db 12 3f 12 63 23 3f
       0.06721781 0.593349 0.57366157 0.63823044
0000e0 2e 78 ba 3c b8 52 a6 3d 8d 0f 18 be a0 03 0a 3d
       0.022762384 0.08121246 -0.14849682 0.033694863
0000f0 cf 68 2f 3e 35 a6 1c 3f f0 62 da 3f 7e fc 02 be
       0.17129825 0.6119111 1.7061443 -0.1279163
000100 ba fc 6c 3b cb a5 d9 bd 56 86 1f 3f c5 a6 f8 be
       0.003616138 -0.106273256 0.62314355 -0.48564735
000110 c7 af d4 3d 4e 60 2b be 26 b6 3e 3f 2d c2 00 3f
       0.10385089 -0.16735956 0.74496686 0.5029629
000120 48 03 15 3f 46 c0 92 bd f1 99 57 bf ea 9b 2c be
       0.5820813 -0.071655795 -0.8421927 -0.16856351
000130 55 96 8b bd 50 06 e3 bd 34 a3 18 bd 70 c6 e6 bd
       -0.06815783 -0.110851884 -0.037265018 -0.11268318
000140 dd 8e 5f 3f 8d d3 6c 3e 20 91 f4 be 82 ed a7 be
       0.8732737 0.23127575 -0.47766972 -0.32798392
000150 02 85 b0 3d e4 30 b7 3e 4b 2e 9b bf 93 0e 7f bf
       0.08619119 0.35779488 -1.2123502 -0.99631613
000160 d4 ee 0e 3e 30 c2 78 3d 22 2a 09 3e fb 2c 27 be
       0.13958293 0.060732067 0.13394979 -0.16325752
000170 db f0 c4 3e 64 1c 90 bf 85 11 65 bf 3a ae df 3d
       0.38465008 -1.1258664 -0.8947986 0.10921903
000180 90 56 f9 bc 20 aa 32 3c a7 34 1c be 59 da 60 3e
       -0.030436784 0.010904819 -0.1525446 0.21958293
000190 34 4c 0b 3d fe 3d a2 bc e5 30 99 be b6 85 5b be
       0.03400822 -0.01980495 -0.29920116 -0.21437725
0001a0 4e 57 10 3c 02 89 0f 3d a3 ae 55 3e e8 d8 b9 3c
       0.008809878 0.03504277 0.208674 0.022686437
0001b0 01 61 0e 3e ee 06 39 3e 33 a7 32 3e de d9 82 bd
       0.13904192 0.1806905 0.17446594 -0.06389211
0001c0 b2 2d 8e be d5 f9 b4 3d 2f b4 84 be 33 9c 88 3e
       -0.27769238 0.08836714 -0.2591872 0.2668167
0001d0 36 3c 08 be 0e bf 86 3e 04 31 94 3e b0 74 f9 3e
       -0.13304219 0.26317638 0.28943646 0.48721838
0001e0 8f 6c ad bd ef 6d e1 bd 0d af d4 3c a3 82 09 3e
       -0.084679715 -0.11007296 0.025962377 0.1342874
0001f0 6e 72 82 bb 1a 6a f6 3e ae 21 7a 3e 5c 27 bd 3d
       -0.0039809262 0.48127824 0.2442691 0.09236023
000200 be 6a d1 bd 6c ff 74 bd 48 da 57 bf 46 53 03 bf
       -0.102254376 -0.0598139 -0.84317446 -0.5129894
000210 9a cb d1 3d f9 d3 1e 3d 30 18 12 3e 39 44 91 bf
       0.10243912 0.03877637 0.1426704 -1.1348945
000220 60 a0 9c 3e 09 e7 d7 3e c7 65 d8 be f6 8b e5 bc
       0.30591106 0.42168453 -0.4226515 -0.02802084
000230 1c a5 6d 3d a9 70 f3 3d df b4 a7 bd 3d 41 1f 3e
       0.05801879 0.118867226 -0.08188795 0.1555223
000240 ba 08 25 bf 5d c9 ff 3e e7 42 22 3f 72 86 d2 be
       -0.6446644 0.49958315 0.63383335 -0.411182
000250 58 0d e2 3c 42 97 86 bf a0 d7 1c be 74 9c b9 be
       0.027594253 -1.051491 -0.1531663 -0.36252177
000260 42 d9 e1 bd 6f 90 ed bd 0a 5c 19 3e 67 e6 2a be
       -0.11027767 -0.11599814 0.14976516 -0.16689454
000270 f8 8d 8a bf 27 2e 82 3e ed ca 5c bf 6a 7d aa 3a
       -1.0824575 0.25425836 -0.8624714 0.0013007347

net.4.bias f4 [5]
000000 f6 76 d1 3d e1 55 f2 bd 07 8d 3e be 14 51 94 bd
       0.10227768 -0.11832786 -0.18608485 -0.07242027
000010 3d 15 88 3d
       0.06644676
