code/model/posture_model.pth (torch, 15620 bytes, 6 tensors)

classifier.0.weight f4 [64, 14]
00000000: 5f88 843d 7b17 87bd 9f96 6f3e 5a7b 27bd
00000010: f126 90bc 1917 763e 84b3 783e 0779 d7bd
00000020: 7e18 1cbe 29a5 0cbe 4283 8c3d 50e1 c83d
00000030: 033f ffbd 3592 d63d 3b58 8ebf ae31 7cbf
00000040: 2c1a 9c3e e346 023f 829f 7abf 3c95 84be
00000050: df3b 3fbe 0228 d5be a527 cabe c856 38bf
00000060: 1588 92be a002 3abf 4d83 c0be 7994 86bf
00000070: 9031 853f c191 333f 79f3 a6bf b67a 67be
00000080: f1e8 4c3f 0771 493d 93fa adbe 7de3 943d
00000090: 4c8b 7b3e 11fc 3a3e dd92 adbe 1196 fd3e
000000a0: f1d3 df3d 51e4 cc3e a65a 12bf 99d3 89bf
000000b0: 8458 8bbe 079d 823f 5939 44bf ad2b f2be
000000c0: 8d1f 88bf c2ef 853f c2a3 34bf 7947 913e
000000d0: f21d 25bf 210f 653f 7995 a2be f2e2 fb3e
000000e0: 22b7 203e db0f 97bf 1bdd 84bf eb37 433f
000000f0: 21de 04bf f2a7 d5be 5091 8dbf 342f 623f
00000100: f4c0 17bf 7966 60ba 9c8f c3be 9691 003f
00000110: 588f 4bbe 425f 723f c132 813e 6493 f13e
00000120: f65b 2fbf bb62 8ebe 2c0a ce3d c068 9a3e
00000130: 5d2d e13e b853 703e ff5b bb3c 6e6e 803e
00000140: 1c4c 78bd ad7e 963e 7252 833e f730 483f
00000150: 9a89 413e 30e7 bb3d 3215 8bbd 9818 77bd
00000160: b8c2 12bd 9857 bc3d fafb d1bd 80b8 903b
00000170: 8ef7 663e 98e8 f5bc 007a 54be 9806 fa3d
00000180: 70e5 8d3c 846a d53d 390f a43e 7be9 a23c
00000190: 48c9 32bf 6976 023f 1750 09bf 8dde 6bbd
000001a0: e117 62bf 7992 2f3f 22d4 f5be 95dc 5dbd
000001b0: e75c 56bf 007e 6a3e bca6 d0bd a549 363f
000001c0: ff59 a5bf de64 983e 0fc5 fa3e 74c3 883f
000001d0: 19c3 83bf f7d5 df3e 3a45 673d 4b0b 103f
000001e0: 080e 1abf 61e9 033e 41b7 ffbc 3b37 723e
000001f0: 974e abbd 07c5 8dbe 0431 12be e022 c73c
00000200: 8077 453e 2284 3d3e 680d 4f3e 810b 10be
00000210: 7848 4dbe 74db 87bd 180c 19bd a075 4fbe
00000220: 5e7c 6e3e fa8f 203e 4c34 d33d f054 833c
00000230: f3a8 503f 8d2f 2abf 76cf 2fbf 1c8b 09bf
00000240: 25af e43d dd8c e0be 6136 d4be bfc9 69be
00000250: d010 4cbe 03c0 cabd 039c 2cbf 372b 3a3e
00000260: 0c26 99be 1bff bf3e db38 99bf 256c 8c3e
00000270: 5bcf a23f 3145 613f b888 06bf 8d2c 143e
00000280: ba3c b63e 2ba8 ed3e 29db f0be ef7b a33e
00000290: 9992 7a3d fac8 d33e c1d9 ce3b 5afa b8be
000002a0: 40a4 abbd 889a 133d a5b0 86be 1ed6 abbd
000002b0: 1062 96bd f0ce d33c 22da 3abe f04b a03d
000002c0: 62d1 babd fc7e 82bd 225e 63be 6b8c 74be
000002d0: d846 4e3e 1b74 863e ecee 22bd 00fd efbb
000002e0: c0fd ddbc 4298 e4bd 0851 f5bd e42a 813d
000002f0: 3887 563e 685b f0bd 2866 2b3d f4f7 ae3d
00000300: f0cd c83d 60ee 98bc c7bc 35be 9425 b8bd
00000310: 4099 a1be f28d 75be 4c09 a83f 13d2 5e3d
00000320: 8ac8 f8be a597 283d c850 b53e 6757 c5be
00000330: 032b 62be f5ee 36bf 5902 54bd 9aaa f4be
00000340: f7f1 12be 1170 8bbf 751d b83e ac33 783e
00000350: 5239 9f3f 352f 27bd 645f 3c3e 447d b13e
00000360: 9bd3 0d3f f207 e7bd 3d5d d43d 14d5 0bbd
00000370: 29ea cc3e 2aa7 1dbe d436 573e 70e5 0abf
00000380: 1c88 80bf caee 5c3f 18c8 3e3f dfc9 593f
00000390: 32de c4be f1b8 f53e 0f9f b9bd b24e 063e
000003a0: ff7a e0be e5ae 4e3e 3b2f 633e 5937 adbd
000003b0: 1b45 2b3e 8732 81bd ce62 7d3e 11ec e23e
000003c0: 24f0 5dbf 63e1 6fbe e631 003f 83b8 263f
000003d0: da27 0e3f b9dc 08be 6361 043f 5e5b 073f
000003e0: d5df 1e3f 4f42 873e e2df 223f 4dc9 2d3f
000003f0: f22a bf3e ee71 79bf f28e 85bd aaf0 08bf
0.06471323 -0.065962754 0.23397301 -0.04088912 -0.017596694 0.24032249 0.2428723 -0.10521131
-0.15243718 -0.13734879 0.06860973 0.098086 -0.124631904 0.104771055 -1.1120676 -0.98513305
0.30488718 0.50889415 -0.9789964 -0.25895107 -0.18675183 -0.41632086 -0.3948337 -0.7200742
-0.28619447 -0.72660255 -0.37600175 -1.051406 1.040575 0.7014428 -1.3043052 -0.22605404
0.8004294 0.049180057 -0.33980235 0.072699524 0.24564856 0.18260218 -0.3390111 0.49528554
0.109290965 0.40017942 -0.5716957 -1.07677 -0.2721597 1.0204171 -0.76650006 -0.47298947
-1.0634629 1.0463793 -0.70562375 0.28374842 -0.6449882 0.8947621 -0.31754664 0.49196583
0.1569486 -1.1801714 -1.0379976 0.762572 -0.5190144 -0.41729695 -1.1059971 0.88353276
-0.592788 -0.00085601915 -0.38195503 0.50222147 -0.198789 0.946766 0.25234035 0.47182763
-0.68499696 -0.278097 0.10060534 0.30158043 0.43979922 0.23469436 0.022871016 0.2508425
-0.06061946 0.2939352 0.25648838 0.78199714 0.18900147 0.09174955 -0.06791152 -0.06032619
-0.03583023 0.09196395 -0.10253139 0.0044165254 0.22555372 -0.030018136 -0.20749664 0.12208289
0.017321318 0.10420707 0.32042864 0.019886723 -0.6983838 0.5096193 -0.5363783 -0.057585288
-0.88317686 0.68582875 -0.48013407 -0.05416544 -0.8373551 0.22899628 -0.10188052 0.7120612
-1.291809 0.29764456 0.4897847 1.0684648 -1.0293914 0.4371793 0.056462504 0.5626723
-0.6017766 0.12881996 -0.031215312 0.23653881 -0.08364599 -0.27689382 -0.1427651 0.024308622
0.19283867 0.18507436 0.20219958 -0.14066888 -0.20047176 -0.06633654 -0.03736505 -0.20259714
0.2328963 0.15679923 0.10312709 0.016031712 0.81507796 -0.66478807 -0.68675935 -0.5372789
0.11166219 -0.4385747 -0.41447738 -0.22830866 -0.19928288 -0.098999046 -0.67425555 0.18180548
-0.2991184 0.37499318 -1.1970476 0.27426258 1.271953 0.879962 -0.52552366 0.1447012
0.35593206 0.46417364 -0.47042206 0.3193049 0.061174963 0.4136427 0.0063125794 -0.36128503
-0.083809376 0.036036044 -0.26306644 -0.08390449 -0.07342923 0.025855511 -0.18247274 0.07826984
-0.09121968 -0.063718766 -0.22203878 -0.2388169 0.20144212 0.26260456 -0.039778635 -0.007323861
-0.027098536 -0.111618534 -0.11978346 0.06307009 0.2095002 -0.11736184 0.04184547 0.08543387
0.098049045 -0.018668354 -0.17747794 -0.089915425 -0.31562233 -0.23979929 1.3127837 0.05439956
-0.485905 0.041160244 0.35413194 -0.38543245 -0.2208672 -0.7145837 -0.05176005 -0.4778641
-0.14350115 -1.0893575 0.35959974 0.24238461 1.2439368 -0.040816505 0.18395764 0.34665883
0.5540101 -0.11280812 0.10369346 -0.034138754 0.400224 -0.153958 0.21017009 -0.54256344
-1.0041537 0.86301863 0.7452407 0.85073656 -0.38450772 0.47992662 -0.09063541 0.13115957
-0.4384384 0.20183904 0.22185986 -0.08457822 0.1672558 -0.063084655 0.24744722 0.4432073
-0.8669455 -0.23425822 0.5007614 0.6512529 0.5552956 -0.13365449 0.517111 0.5287379
0.6206029 0.26417777 0.6362287 0.67885286 0.37337452 -0.9743947 -0.06521405 -0.53492224

classifier.0.bias f4 [64]
00000000: 56ac 1ebe bfcc a33e 09b5 9b3e d7e7 d73e
00000010: deb4 ba3e 4c7b e23e eecb 0fbe 1fd3 8f3e
00000020: 4703 7f3d be2c bebd be41 b23e f4cb b63e
00000030: b83d 63be 220b 46be c3b1 a33e 81e1 f13e
00000040: 8384 d23d 647e 433e a4ca e13e ab58 953e
00000050: 9c56 babd eab7 55be 5acf 70be 66ec 9c3d
00000060: fce6 703e fabd 6a3e 8bc8 6a3e 3324 8a3e
00000070: 6308 70be b0a3 8abd 18c0 993c 324e 84bd
00000080: 299f d3bd ef2a 44bc ead6 bbbd b0e3 c63c
00000090: 6ecf 053d cfe7 6fbd 7415 75be 6800 dabd
000000a0: a63c 55be dade 06be 3015 ad3e 665f dabd
000000b0: 6278 b23d 0ea3 03be 92d8 74be c151 1dbe
000000c0: 6713 493e 1a7e 5a3e fb5c b33e a16e 733d
000000d0: bea7 87be 1be3 a03e 4b63 8bbc 2d52 183f
000000e0: 643a e63d e6b4 2bbe da61 8b3e e360 08be
000000f0: a31f 0c3e 86e8 073e c10c 4d3e 4f0a 30be
-0.15495428 0.31992146 0.30411556 0.42169067 0.36466116 0.44234693 -0.14042637 0.2809076
0.062258985 -0.09285878 0.34815782 0.3570248 -0.22191513 -0.19340184 0.3197156 0.47242358
0.10279181 0.19091183 0.44099915 0.2916921 -0.09098551 -0.20870939 -0.23516598 0.07662277
0.23525614 0.22924033 0.22928064 0.26980743 -0.234407 -0.06769502 0.018768355 -0.06460227
-0.10333092 -0.011973127 -0.09171851 0.024278492 0.032668523 -0.05857068 -0.23933965 -0.10644609
-0.20823917 -0.13170949 0.33805227 -0.10662727 0.087143674 -0.12855169 -0.2391074 -0.15363218
0.19636308 0.21337166 0.35031876 0.059431676 -0.26495165 0.31423268 -0.01701512 0.5950039
0.11241606 -0.16768226 0.27223092 -0.1331821 0.13683943 0.13272294 0.20024396 -0.17191432

classifier.2.weight f4 [32, 64]
00000000: 6721 4cbc 12ce 3c3e 117d 9e3e 0c3e 793e
00000010: 861b 6b3e 0d83 093e e448 30bd 7ed6 933e
00000020: 7f16 12bf 9830 94bd 5da1 ef3e 7131 423e
00000030: f009 263d 18aa f63d 456e c43d 3e58 b83e
00000040: c583 bdbe af2f 373e e151 a73e 6e94 4a3e
00000050: b88a 873c b2b2 883d 68f8 223d a20c 41bf
00000060: c007 913d c313 673e 9e0f ce3e d642 cd3e
00000070: 4028 02bc 5c05 ef3d b1f3 cf3e a674 51bf
00000080: 7886 083d c77c e8be f834 b43c 61a0 19bf
00000090: 02c9 8bbe 12f8 d43d 9aff d73d 9cb9 303d
000000a0: 8e90 ee3d a0e7 babd f4ca d83e 5ca7 383d
000000b0: c19d 9abe 50e3 0f3c 80ac c6bb 7ad1 d3bd
000000c0: caa4 d03e 37ea cabb fa4e d23e e612 91be
000000d0: 00c7 11bc 88b0 7b3e 74f8 13bf 525e 9c3e
000000e0: 7d46 52bf aec6 aa3d 2a86 ad3e 9648 ff3d
000000f0: 95e3 0ebf 5a5a 853d 85bb 16bc 6644 ba3d
00000100: ce0f 91bd 7d48 6abd a7cf b2bd 2124 0a3d
00000110: c4ce b33c 3294 88bd c0ee c6bb 351f 90bd
00000120: 83ce c53d 009a 473c 74de 8dbc 5579 07be
00000130: 80b5 d7bb ae33 e1bd 94b6 553d 4e36 cabd
00000140: 9c1d 06be b513 a83d c41a 723c 19cc 973b
00000150: 5c31 53bd ecba 733d 3efe 87bd a728 0ebd
00000160: 80a0 00be 804d 703b 1bdc ab3b 9769 a03c
00000170: b806 b93c 38e3 b5bc aaea 07bd a0da a33c
00000180: a0c6 bb3b 096a 04be c05d fd3b 72a4 933d
00000190: 4e9a 82bd c254 af3d 6807 dfbc fce0 a3bd
000001a0: a0ce 84bb 7a8c 913d e470 b53d 3262 b4bd
000001b0: 5de6 89bd e013 8a3b a4ec 62bd e876 c3bd
000001c0: f3ea 74bb 314c 7abd 76f3 873d 0b09 7fbd
000001d0: f687 e53d ce07 69bd dc0b aebd b7af 8cbd
000001e0: 14bc 69bd 902f 3e3d fd3b 4f3d fc72 36bd
000001f0: 00fe ebbd 59f0 d6bc febf 03be 6c24 50bd
00000200: 3db5 d3bd 0307 84bd b2fe bb3e f871 d53d
00000210: a7ff d63e 4a7a 993e 0053 ff3c 056f 483e
00000220: 625c 16bf 58ef 7a3d 6c26 063f c86d 3fbd
00000230: a2da 8b3d 5067 58bc 10c7 03bd a660 9f3d
00000240: 672e 13bf 8184 a13d cca1 ad3e e6e8 8d3d
00000250: 44fa 983d d01e dbbc c8d6 68bd 079b 2abf
00000260: 5e23 2abe 7ef2 873e d498 223f 627d c13e
00000270: 60eb aabc a0d4 56bc 74f5 433f 8602 fbbe
00000280: 1c1c 40bd f374 8abe 340f 5abd e6b0 e7be
00000290: a689 afbe ed7c 42bb 00df b83d 54e6 de3d
000002a0: 88b8 383d 38f2 b63c 9a22 043f ae47 c33d
000002b0: 52ea 91be 64e9 ce3d a8c1 1e3d 3c06 463d
000002c0: bcfa a2be ba15 11be 9fd1 1d3f 7808 a2be
000002d0: fae4 983d 28d1 c03d 702e 0abf 535a 8e3e
000002e0: 3410 8cbf fcc4 463d 421d 963d 98d3 4e3d
000002f0: 86aa 07bf 40b2 053e 691a 61be d447 7f3d
00000300: f85e cb3d c202 383f bcc6 6abe 667d 1d3e
00000310: d28f 3b3d 72e4 fe3d 14c6 f03d 0c94 6d3c
00000320: bdc9 ce3d ca61 ed3d 7608 a4bd 09e7 523e
00000330: 167d a93d f419 70bd 8bdb 283f 885a 663e
00000340: 7ce7 613d efdc dcbc 88bb 6c3e 4334 8a3e
00000350: 80d7 60bd d43d f4bd 385c 2fbd db3c 873e
00000360: d42c 1d3f 1a4b 01bc b3d3 fa3d 6921 993e
00000370: 0042 57ba 4083 aa3c 8792 5b3e b51b 113f
00000380: 78fe bcbc 43c9 5abe c285 d3bd be11 8e3e
00000390: 711f 26be 8cc5 54bc 4ef3 b13d c087 73bb
000003a0: f071 433d c87e 1d3d ea15 6bbe 708c b93c
000003b0: 46b4 0fbe b0f3 e0bc f64c d4bd aaf8 91bd
000003c0: e553 563f 58ed bf3e 68e3 7dbe 3bf0 18be
000003d0: 3093 723c 6c12 d93e e4c9 37be 63f6 55bd
000003e0: abba 433f e454 3abd ed94 9d3e 802c fabc
000003f0: 16bc 293f f3d9 ac3c 7474 313e cc46 443d
-0.012459136 0.18437985 0.30954793 0.24340075 0.22959718 0.13428898 -0.043038264 0.28874582
-0.57065576 -0.07235831 0.46802798 0.18964173 0.04053682 0.120441616 0.09591345 0.36004823
-0.37014595 0.17889284 0.32679656 0.19783184 0.016545638 0.066747084 0.03978768 -0.754099
0.07081556 0.22566132 0.4024629 0.40090054 -0.007944167 0.11670944 0.4061561 -0.81818616
0.033331364 -0.45407698 0.021997914 -0.60010344 -0.27301794 0.10398878 0.10546799 0.04314576
0.11648665 -0.0912621 0.4234234 0.04508148 -0.30198482 0.008782223 -0.006063044 -0.10342689
0.40750724 -0.0061924714 0.4107588 -0.2833473 -0.008897543 0.2457906 -0.57800984 0.3054071
-0.82138807 0.083386764 0.33891422 0.124650165 -0.5581601 0.06511374 -0.009199982 0.09095077
-0.07083093 -0.057198036 -0.08731013 0.03372586 0.02194918 -0.06668891 -0.0060709417 -0.07037202
0.096585296 0.012182713 -0.017317988 -0.13229878 -0.006582916 -0.10996185 0.052176073 -0.09873639
-0.13097233 0.08206884 0.014776889 0.0046324846 -0.051560745 0.059504434 -0.0664029 -0.034706738
-0.12561226 0.0036667287 0.0052447445 0.0195816 0.022586212 -0.022203073 -0.033182777 0.02000171
0.005730465 -0.12931074 0.007732123 0.072091 -0.063770875 0.08561088 -0.027225211 -0.08001897
-0.004052952 0.07106872 0.08859423 -0.08807792 -0.067333914 0.004213795 -0.05540146 -0.09544164
-0.0037371486 -0.061107818 0.06638233 -0.062264483 0.11207573 -0.05689221 -0.08498356 -0.068694524
-0.05706413 0.046432078 0.05059432 -0.04454325 -0.11523056 -0.026237654 -0.12866208 -0.050815985
-0.10337303 -0.0644665 0.36717755 0.104221284 0.41991922 0.29976112 0.031167507 0.195736
-0.58734715 0.061263412 0.5240238 -0.046735555 0.0682881 -0.013208225 -0.032172263 0.07782106
-0.5749268 0.07886601 0.33912504 0.069291875 0.074696094 -0.026748091 -0.056845456 -0.666428
-0.16615054 0.26552194 0.6351445 0.37790972 -0.020864189 -0.013112217 0.76546407 -0.49025363
-0.046901807 -0.2704235 -0.053237155 -0.4525215 -0.34284705 -0.0029676512 0.09026909 0.10883775
0.045097858 0.022332296 0.516153 0.09535156 -0.28499085 0.101031095 0.038758904 0.04834579
-0.3183192 -0.14168444 0.6164798 -0.31647086 0.07465549 0.094148934 -0.5397711 0.27803287
-1.0942445 0.048527703 0.07329799 0.05049476 -0.52994573 0.13056278 -0.21982731 0.06232436
0.09930223 0.7187921 -0.22927374 0.15379867 0.045791455 0.12445916 0.117565304 0.014500629
0.10097072 0.115909174 -0.08009426 0.20595945 0.082758114 -0.0586185 0.65959996 0.22495472
0.0551524 -0.026960818 0.23118412 0.26992998 -0.054893017 -0.11925855 -0.042812556 0.26413617
0.6139653 -0.007891441 0.1224741 0.29908302 -0.0008211434 0.020814538 0.21442614 0.566829
-0.023070559 -0.21365838 -0.10328247 0.2774791 -0.16222931 -0.012986552 0.08688985 -0.003715977
0.04771608 0.038450986 -0.22957578 0.022649974 -0.14033613 -0.02745995 -0.10366242 -0.07127507
0.8372176 0.37485766 -0.2479378 -0.1493539 0.0148056 0.42396867 -0.17948109 -0.052236926
0.7645671 -0.045491114 0.30777684 -0.030538797 0.6630262 0.02110002 0.1732958 0.04791908

classifier.2.bias f4 [32]
00000000: 2f36 a83e e709 053d 55eb a33e a9ed 0c3d
00000010: b241 cebd 74f7 c33d c0a6 c6bb 108e f8bd
00000020: dc2f d7bc 8b2b 3b3d b15a 2abd e974 80bd
00000030: cb42 873c 96d2 3b3d 88c1 5dbd f1fb 0fbd
00000040: f866 cdbd 871c 8bbd 8a91 2fbc 4fb5 cb3d
00000050: 7cac e3bd eec9 63bd 7691 a03e 4f02 ee3d
00000060: de2b c6bd bd03 893e 00a4 74bc 53d9 9fbd
00000070: fcb4 713c f96e 703e 64bc 0dbd 9b22 0e3e
0.3285384 0.032480147 0.32015482 0.034406338 -0.10071124 0.09568682 -0.0060623586 -0.12136471
-0.026267938 0.045695823 -0.041590396 -0.06272299 0.016511342 0.045855127 -0.054139644 -0.03515238
-0.10029405 -0.067925505 -0.010715852 0.09946691 -0.11116883 -0.055612497 0.31360978 0.11621534
-0.09676336 0.26760665 -0.014931679 -0.07805123 0.014752623 0.23479833 -0.03460349 0.13880388

classifier.4.weight f4 [5, 32]
00000000: d9d7 173f af04 27bd d8ab 483f 9419 99be
00000010: af7c 7abe b177 91bf f809 09be 347b dabe
00000020: 6074 9d3d 793b cc3e fd93 903e fdb5 94bf
00000030: 171e 31be 1368 7e3e 11e1 71bf 5a13 03be
00000040: 0076 2eba a913 b4bd 5fed 21be d36f 02be
00000050: 6044 1c3c f5bd 0b3e 1137 b83e 6d94 00bd
00000060: fafc 313d 6f17 2f3e b0e2 1a3d e522 80bf
00000070: f3c8 da3d ed26 553e cbf1 273e 57fb 4f3e
00000080: 3d34 c63e 9484 dd3c a8bf 9b3d aec7 f83e
00000090: d361 c7be 413e 333f f81d ffbc 1f86 a8bf
000000a0: 437e 953d 8388 28bf aebd 1abf 9312 0e3f
000000b0: 5ce9 cebe b6f7 c2be e95c a9bf 7f82 0bbf
000000c0: 977c 283e 5b45 7a3d 6cb1 b5bf 4f90 c53e
000000d0: be48 e23d 0cc5 d23d 431e a53e 9333 0e3e
000000e0: b76b f13d 409a b63e 0198 1abe 4163 49be
000000f0: 71e7 33be 3cde 233f 5ef9 2fbe c03b 8ebe
00000100: 3f5f 1cbe 0c90 5d3d 136c 583d 015e f73d
00000110: 5698 8b3e a3be 5fbd 16f7 a93d 2457 503e
00000120: bd1f 0f3e cdfc 06bc 1c7f 0dbf bddc 4d3e
00000130: 1f8a 77bd 7748 0e3d 7ca3 b23e 3b99 7c3e
00000140: 6d89 23be be23 11be 5c4a 083e 7d7e 71bd
00000150: 3b1f 87bd 044b 8cbc 1bd8 7ebd 0885 753e
00000160: 94dc 39bd f220 063e 7038 f2bd a99e d13d
00000170: 406d 253e 2d00 9abf f80c 96bd fbd0 593d
00000180: 5ebe 11bf eb85 483d b4a3 f3be 3eb8 08bf
00000190: b21b b03e 00ba 843e 4000 e13b 167c 1cbf
000001a0: 5301 203e fb28 b53e 6bf4 4bbf e899 d1bc
000001b0: aac9 5f3e 9767 863e b074 15bf bbb1 fb3c
000001c0: e031 5dbc 6f1c 33be 4758 b7be 3dd2 1bbf
000001d0: 43f7 103e af5b c53d 5616 23bf e4cd 45bf
000001e0: 8f79 0f3d 5113 2abf 9ea4 983d f288 cc3e
000001f0: 5635 a9bc ac7e 1c3f 494b 343e 0e0d ca3e
00000200: 6f2f babe ebf6 f63d 898b 72be 0e55 863e
00000210: 70a4 8abe 9cf8 463e 9449 243d f47b 173f
00000220: f6c3 273d af55 07bf e329 ae3e 245f d73e
00000230: ff86 bd3c af63 3fbf fe6d 243f 0346 4ebd
00000240: 06bb 20be 6ab7 1dbe a5e1 f63e a36b f0bc
00000250: b0e8 88bc 4490 2e3d cd57 c53d b06b 99bd
00000260: c3f1 b0bc d0f9 133e d08b d43c 4046 eb3e
00000270: 55ed 153c d7c4 36bf 7409 cdbd d1ce 9ebe
0.5931373 -0.04077595 0.7838721 -0.29902327 -0.24461626 -1.1364652 -0.13382709 -0.42672122
0.076882124 0.39889124 0.28237906 -1.1618038 -0.17296635 0.24844389 -0.9448405 -0.12800351
-0.00066551566 -0.087928124 -0.15813206 -0.1273797 0.009537786 0.13646682 0.35979512 -0.03139155
0.043454148 0.17098783 0.037813842 -1.0010649 0.10682859 0.2081563 0.1640083 0.20310722
0.3871173 0.027040757 0.07604915 0.48589844 -0.3894182 0.70016867 -0.03114222 -1.316593
0.07299473 -0.658333 -0.6044568 0.5549709 -0.40412414 -0.38079613 -1.3231479 -0.54495996
0.16453777 0.0611013 -1.419477 0.3858666 0.11049031 0.1029149 0.3224965 0.13886862
0.11788123 0.35664558 -0.15097047 -0.19666769 -0.17568757 0.6401098 -0.1718497 -0.2777996
-0.15270709 0.054092452 0.052837443 0.12078477 0.2726466 -0.054625165 0.08299081 0.20345742
0.13976951 -0.008238983 -0.5527208 0.20103736 -0.060434457 0.034737077 0.34890354 0.24667828
-0.15970393 -0.14173791 0.13309616 -0.05895852 -0.065977536 -0.017125614 -0.062217813 0.23976529
-0.045376375 0.13098505 -0.11827171 0.1023534 0.16154957 -1.2031304 -0.07326692 0.053177815
-0.569311 0.04895584 -0.47585833 -0.5340613 0.3439613 0.25923157 0.006866485 -0.6112684
0.15625505 0.35382828 -0.7966983 -0.025586084 0.21854272 0.26250908 -0.58381176 0.030724397
-0.013500661 -0.17491315 -0.35809538 -0.60867673 0.14156823 0.09636628 -0.63705957 -0.7726729
0.035028037 -0.66435724 0.07453273 0.3994823 -0.020655315 0.61130786 0.17606844 0.39463085
-0.36364314 0.120588146 -0.23686041 0.26236767 -0.2707858 0.19430774 0.040109232 0.5917351
0.040958367 -0.5286512 0.34016332 0.42064774 0.02313566 -0.7476148 0.64230335 -0.050359737
-0.15696344 -0.15401998 0.48219028 -0.0293482 -0.016712517 0.04261805 0.09635887 -0.07491243
-0.021599656 0.14450765 0.025945574 0.45952034 0.009150823 -0.71394104 -0.10011569 -0.31017163

classifier.4.bias f4 [5]
00000000: 186c 763e c1c2 5b3c 6c27 fd3d e712 fb3c
00000010: 1873 b8bd
0.24064672 0.013413132 0.12361035 0.030648662 -0.090063274
