code/model/rnn_posture_model2.pth (torch, 93110 bytes, 6 tensors)

lstm.weight_ih_l0 f4 [256, 21]
00000000: f316 ab3f 058c 563f a8a5 dfbe 6d4c 533f
00000010: f217 e5bc ba9a e4be c5ee 3c3f fb75 eb3e
00000020: 72c9 e7be 6566 4d3f 3d9f df3e 4c9e 19bb
00000030: a51d 483f 2afa 153e a3eb 23be 4970 223f
00000040: 5a6b 093e 6075 89bd ae0a 193f de15 1b3d
00000050: 5794 91bd 514d b63c bb2d 8a3e 2fc7 e83e
00000060: 8909 39be 576a 4b3e c928 5ebe a7d3 513e
00000070: 70d0 f53e e1ae dabd f7a0 193d 378d 963e
00000080: cd1f b3be 3d81 503e 7205 033f c656 273e
00000090: c75c 433e d8fa 063f 21eb bdbd a765 a83e
000000a0: 3c18 3b3f 2866 4f3c 5328 fc3e 80f7 033f
000000b0: b415 753f d6ff 62bc 8a07 efbe 4f37 23be
000000c0: 9619 d43e 907a 82bf 51ac b83e 69b9 773e
000000d0: 6f9f 6cbf b556 08be 9271 a73e 127e 8dbf
000000e0: e391 4cbe f5a7 483e 42c1 8cbf 2703 d2be
000000f0: f4c1 a33e 61cb 06bf 95ac abbe 8d2d 8c3e
00000100: 08b2 7bbe 9cc4 89be 78c6 a93e b2f5 2ebe
00000110: 0a80 27be c359 473e e3c9 0d3e ccf4 bd3b
00000120: ee0a a13c 631e 8dbd 8550 a9be 91ca 563e
00000130: fdcf 853e f04a cd3c 0e63 273d 268d 493d
00000140: fca1 dabd 0539 1c3e afe1 b83e a39b 173e
00000150: 8edc 7f3f 8796 7e3f 4ea7 113f f310 f73c
00000160: cff4 533f 1df6 85be 0c1d 4d3f 68d9 3e3f
00000170: c3e9 fc3e 8ab1 2b3f 78d5 18bd cc96 12be
00000180: 3242 3b3f 2a16 153f 9507 18bd ef31 3d3f
00000190: dfa2 03bc 38e9 d4bd 4996 4b3f 6ae6 4f3e
000001a0: 36f5 14be a9dc 423f eb5f 363f 0408 93be
000001b0: 1196 1e3e b9c3 8ebe 0941 0cbd 5643 823e
000001c0: a442 133d 1edb 4ebe 7cd1 d63e 41d0 053c
000001d0: e424 96bc 9c37 b23e 5998 3e3c 2097 79be
000001e0: 4976 e93e c253 013e 5be9 05be bf2e 923e
000001f0: ea87 603d e25e 00be 3fd5 7c3e 0102 1b3e
00000200: 2fdf 513d a773 98bd b1d1 c23e 0b36 3c3e
00000210: 2c8b 4d3e 0f56 9f3e 1f44 653e cbec f23d
00000220: 97c4 0d3e 570d c53c d724 9d3e 22ca bc3e
00000230: 7958 8c3d 1920 e93d a8a1 9f3e 1d07 23be
00000240: 9c2e c53e 1a63 ee3e 968d 94bd 3098 5b3e
00000250: 4a43 193f f3ef c53e 3fc0 ab3c ff92 053f
00000260: f8de aebe 2539 8e3e d252 f53d b3c3 27be
00000270: c292 c63d 7a77 9c3e 4710 99be d53e 803e
00000280: 6edf 8b3e f501 83be 8575 4b3e 0eb8 b63e
00000290: 159e 37be 0480 453e 3ec6 d63e 4209 b8bd
000002a0: 1bf3 05be cab1 fe3d 7a8a cb3e aaaa 4ebd
000002b0: b27c 603e 63ed de3e 9147 02be 533c 953e
000002c0: 68ba e33d e4cf 6dbe 01c1 153f b2c2 8f3e
000002d0: f9e1 57bd cdc9 e73e 2229 8c3e 9c7e 4a3d
000002e0: 0cca 1d3f d35d 843e c530 d9bd a6f4 033f
000002f0: 10b4 053f ff5d 01be 1db4 24bf 4621 c13e
00000300: 121f 0f3f b000 d73d a8cd e83e 702b 88bd
00000310: d8b2 283e 69b7 d63e ee91 b8be 8bec 0e3f
00000320: 6a68 693e 8d8e 8abe ab16 bd3e 4148 093e
00000330: 999c acbe 6dbc 243f ade6 723e 95c4 ddbd
00000340: 9007 243f 1a97 cb3e 4c20 cd3d 657c ce3d
00000350: 625a 8bbe 64ac e4bd 576d 283e 265f 4ebe
00000360: 35dd b43e 01bf 973e 5686 13be acc9 8a3d
00000370: 0b99 af3e 7316 c5be c169 713e 40c5 c03e
00000380: 52cb e1bd 9a86 493e 51b4 993e 117a bebe
00000390: 00bf a33e 3097 f03e 14fc 98be 707e 3c3f
000003a0: f669 8a3c de89 003e 6a27 c6be 3707 b8bd
000003b0: a3d3 673e 0a11 913e 79ee cfbd 9287 cd3d
000003c0: 05ca a2bd 2377 94bd ae9a cabd 2c65 c33e
000003d0: a222 173e 86bb 073d a4bb 1d3e 6af7 4f3e
000003e0: 465c 26bd 7f8c b03e 4127 de3e 0162 963d
000003f0: f958 993f 6b16 4c3f 1e14 a2be ca55 c43c
1.3366379 0.838074 -0.43681073 0.8253849 -0.02796552 -0.44649297 0.73801833 0.4598845
-0.45270878 0.80234367 0.43676177 -0.00234403 0.78170234 0.14646211 -0.16007857 0.63452584
0.13419858 -0.06711841 0.5978192 0.03786265 -0.07108372 0.022253664 0.26988015 0.45464465
-0.18070044 0.19864784 -0.21695246 0.20490895 0.48010588 -0.10677887 0.037507024 0.29404613
-0.349852 0.203618 0.51180184 0.16341695 0.1907836 0.5272651 -0.09273363 0.32890055
0.73083854 0.012658633 0.49249515 0.5154953 0.9573624 -0.013854941 -0.4668544 -0.15939067
0.4142577 -1.0193653 0.36068967 0.24191822 -0.92430776 -0.13314326 0.32703835 -1.1054099
-0.19977526 0.1959532 -1.0996478 -0.4101803 0.31983912 -0.5265408 -0.33530107 0.27378502
-0.24579632 -0.26907814 0.33159232 -0.17085913 -0.16357437 0.19467835 0.13846545 0.0057970043
0.019658532 -0.068905614 -0.33069244 0.2097571 0.26135245 0.025060147 0.04086595 0.049206875
-0.10675427 0.15256126 0.36109683 0.14805464 0.99945915 0.99448436 0.5689591 0.03015945
0.82795423 -0.26164332 0.80122447 0.74550486 0.49397096 0.6706778 -0.037312955 -0.14315337
0.7314788 0.58236945 -0.037116606 0.7390432 -0.008034437 -0.103960454 0.7952619 0.2030274
-0.14546666 0.7611795 0.7124011 -0.28717053 0.15486933 -0.278837 -0.03424171 0.25441998
0.035952225 -0.20200774 0.419567 0.008167327 -0.018328138 0.34808052 0.011633002 -0.24374056
0.45598057 0.12629607 -0.130773 0.2855129 0.054817118 -0.12536195 0.24690722 0.15137483
0.051238235 -0.07443934 0.38050607 0.18379991 0.20072621 0.31120345 0.22389267 0.11861571
0.13844524 0.024054212 0.3069217 0.36872965 0.06852812 0.11383075 0.3117802 -0.15920682
0.38512123 0.46559983 -0.07253568 0.21444774 0.598683 0.3865963 0.020965694 0.52177423
-0.34154487 0.27777973 0.11978687 -0.16383247 0.096959606 0.30559903 -0.2989523 0.25047937
0.273189 -0.2558743 0.19869049 0.35687298 -0.17931397 0.19287115 0.41948122 -0.08986141
-0.13081019 0.12436254 0.39754087 -0.050455727 0.21922567 0.43540487 -0.12722613 0.29147586
0.111195385 -0.23223835 0.58497626 0.28078228 -0.05270574 0.4527115 0.27375132 0.04943715
0.61636424 0.25852832 -0.10605005 0.5154518 0.5222788 -0.12633513 -0.6433733 0.37720698
0.55906785 0.10498178 0.45469403 -0.0664891 0.16474473 0.41936806 -0.36048836 0.55829686
0.22793737 -0.27061883 0.36931357 0.13406469 -0.33713225 0.64350015 0.23720808 -0.10828511
0.6407404 0.3976372 0.10015926 0.1008232 -0.27217394 -0.111656934 0.1644796 -0.20153484
0.35325018 0.29637912 -0.14406714 0.06776747 0.3429645 -0.3849369 0.23575498 0.3765049
-0.110251084 0.19680253 0.30020383 -0.37202504 0.3198166 0.46990347 -0.2987982 0.7363043
0.01689623 0.12552592 -0.38701946 -0.08985751 0.22639327 0.28333312 -0.10152907 0.100356236
-0.079486884 -0.07249286 -0.09892784 0.38163126 0.14759305 0.03313782 0.1540361 0.20309225
-0.040615343 0.3448219 0.43389323 0.073429115 1.1980277 0.7972171 -0.31655973 0.023966689

lstm.weight_hh_l0 f4 [256, 64]
00000000: 359b 7abe dd52 f03c a858 933e d128 d2be
00000010: 4f25 823f 967d f4bd 17c9 a13e 00be aa3e
00000020: 744f c8be f9cc 18bf ce29 0fbe d3ee 1abd
00000030: 6ffc 603e e514 583e b8db b6be 0d47 ad3e
00000040: 053f 47bc 5f0d 2bbe 5b29 8bbf 620d 43bd
00000050: 4fcf 823d 3761 843e a948 343e ac12 1abf
00000060: 3cb2 2c3e 57ad 583d e524 0abf d436 fdbe
00000070: 16d0 cf3e e089 be3e 2675 e03d a5bc 8abe
00000080: 0ee3 c8bd c701 1f3f 43a0 1ebe 40d0 c1be
00000090: 66d0 34be 65a0 a53e 3071 c73b f37e 8ebe
000000a0: 9476 813d 8773 e8bc cd5e 8eba 63af aa3d
000000b0: ba17 92bd 656a 263c ae8b ec3c b9c6 c53e
000000c0: 0bce d4bd 5378 cdbd f576 6c3e 70d5 6a3e
000000d0: 2b9b 313f 8483 c7be 64af 8a3d 9a25 133d
000000e0: 037b 4f3e 79c9 dbbe b5cd 38be f013 d33c
000000f0: 8297 f23d cea7 683e c4d9 fcbe a384 0b3e
00000100: bffb 30bf aa9d 28bf f4cc b3bd 3cfb 96be
00000110: 7579 eb3e d11b 373e 6ca5 3a3e beaa cd3e
00000120: 8b48 15bf b990 e1be cad0 74be cca7 00bf
00000130: cbc9 f33e daec e93e 1c02 54bf 96fe 503c
00000140: 8c70 c7be 6bd7 3abe 84e5 fbbe bb07 2fbf
00000150: c316 af3d fd82 f63d d514 953e 6c21 12bf
00000160: 8734 463f bb93 863d c0a4 87be 558b 04bf
00000170: 2015 f93e a4a5 213f 0d20 15bf 58b3 39bf
00000180: 22dc 43bd 7561 d83e e762 a13e 09b0 febe
00000190: af0f a73e 5f96 b43e 4b39 153f 2db7 4f3e
000001a0: d38f 7d3d 76bc d6be 9cfa 2bbf 545f b03d
000001b0: ab27 ed3e b386 fc3e b815 d03e 4480 5b3f
000001c0: 2ad4 c4be 0dce 55bf d5ae ccbd 8272 fa3e
000001d0: 0d4c fd3d 2bfb 873d b7b4 a6be 3694 fa3d
000001e0: a7a2 1f3f 46da 9abe 1792 583f b218 93be
000001f0: 29ba 1b3f 02ed 2d3e 2366 acbe 401c 05be
00000200: 193d a9be 5ef0 8e3e 1a63 50bf e443 f7bc
00000210: 033c 3abe 8728 afbd 46eb 5a3f 5fec 32bf
00000220: b94c 2c3f 5dbe 15be 38ce 983f 0efc bdbe
00000230: 39c0 373f 97cd b9be 4791 dbbd 55b0 e4be
00000240: fc68 363f 73ce 133f 2e3c 013f aeb5 c63e
00000250: 15f6 6c3f 1abb 90bf 97f7 50bf 4882 813c
00000260: 4b22 793e 20ec 463f 21ac 433e 8a67 2cbf
00000270: 3210 ec3e 6c8d fa3e c9b1 8e3e ecb6 19bf
00000280: 8892 48bf dbe4 1abf d614 a13e a1fd 1f3e
00000290: a6a6 533e e323 34be 0820 9bbe e8d8 293e
000002a0: b892 46bf 5a8f 0d3f f81a a9be ab52 7abe
000002b0: b44b e83e c1ab fa3d 508a af3e 46f2 47bd
000002c0: bda8 953e 1dfd c43d 5246 1dbf 9fc3 353f
000002d0: 19c9 3fbe cbf6 4abf fe9a 1bbf 1190 513f
000002e0: b8ae 9cbd f637 90be a35c 2ebf e1ae 803f
000002f0: 20d5 09bf 72af fc3e 25e9 663f 1cde 043e
00000300: 7d8d 2dbd f5e8 96be bfb5 213e 56c5 cebe
00000310: cb04 fc3e 8b40 21be c8b7 c43e 388f e13d
00000320: fc5e a3be e754 e4be d012 1bbe 35b2 cdbd
00000330: 0ed6 fa3c 058a 813e 3d7a f9bd cf6c 9c3e
00000340: 6ea2 61be 0571 2e3e 7f4f c9be 85f7 44bd
00000350: 235d e23e 36cf 0f3e 1e93 48be 8a09 acbe
00000360: ec7a eb3d 452b 2c3f d0bc 4ebe 6ff7 9ebe
00000370: 05b7 9a3e 77c1 8b3e 7dc5 5e3e ca94 6bbe
00000380: d090 e6be 8dd6 ae3e 75a1 753e be1d 103c
00000390: c8cc 9abc 07fb 913e a530 50be 2efa 073d
000003a0: 2fd3 95be 696e 6abe 3373 44be 59a1 be3e
000003b0: bba8 c03c 3512 ab3d e071 89bd a638 c43d
000003c0: 8dca 96be 32ad a2be e4a2 123d c934 edbd
000003d0: 4250 e83e f281 633e 8d48 83be 59d6 bbbd
000003e0: b219 8b3e 87da 35bc ac8d f83d 96c6 433f
000003f0: c236 36bf 5841 c23d 667c 7dbe 84b2 25be
-0.2447327 0.029336387 0.28778577 -0.41046765 1.0167636 -0.11938016 0.31598732 0.33348083
-0.39123118 -0.59687763 -0.13980791 -0.037825417 0.21971296 0.2110172 -0.35714507 0.3384327
-0.012161021 -0.1670432 -1.0871996 -0.047620185 0.06387197 0.2585542 0.17605843 -0.6018474
0.16864866 0.052899685 -0.53962547 -0.49455893 0.40588444 0.37214565 0.10959844 -0.2709705
-0.09808932 0.62112087 -0.15490822 -0.37854195 -0.17657623 0.32348934 0.006086491 -0.2783123
0.06321445 -0.0283754 -0.0010861993 0.083342336 -0.07133432 0.010157202 0.028875198 0.38628176
-0.10390862 -0.10032716 0.23092254 0.22932982 0.6937739 -0.38967526 0.06771734 0.03592453
0.20261769 -0.4292715 -0.18047221 0.025766343 0.11845304 0.22720262 -0.49384892 0.13624816
-0.69134134 -0.65865576 -0.08779326 -0.29488552 0.45991102 0.17881705 0.18227166 0.40169328
-0.58313817 -0.44055727 -0.23907772 -0.5025604 0.47614893 0.45688516 -0.8281572 0.0127560105
-0.38953054 -0.18246238 -0.49198544 -0.6837117 0.08549263 0.12036703 0.29117456 -0.5708225
0.774239 0.06571146 -0.26492882 -0.51775104 0.4864893 0.6314337 -0.5825203 -0.7253928
-0.047817357 0.42261854 0.3152077 -0.4974368 0.32629153 0.35270974 0.5829055 0.2028472
0.06190474 -0.4194066 -0.67179275 0.086119324 0.46319327 0.49321517 0.4064157 0.8574259
-0.38443118 -0.83517534 -0.09994284 0.48915488 0.12368021 0.06639703 -0.3255975 0.122353
0.6235756 -0.30244654 0.84597915 -0.2872978 0.6083093 0.16984943 -0.33671674 -0.12999058
-0.33054426 0.2791776 -0.81401217 -0.03018374 -0.18186955 -0.08552652 0.8551525 -0.69891924
0.6730457 -0.14623399 1.1937933 -0.37106365 0.71777683 -0.36289665 -0.10721069 -0.4466578
0.71253943 0.5773689 0.5048245 0.38810486 0.9256299 -1.1307099 -0.8162779 0.015809193
0.24329488 0.7770405 0.1910863 -0.6734549 0.46106106 0.4893602 0.27870014 -0.6004474
-0.7834859 -0.60505456 0.3146121 0.15624095 0.2066904 -0.17591815 -0.30297875 0.1658665
-0.77567625 0.5529686 -0.33028388 -0.24445598 0.45370257 0.12239791 0.34285212 -0.048815034
0.292303 0.0961859 -0.61435425 0.7100162 -0.18729056 -0.79282826 -0.60783374 0.8186045
-0.076505125 -0.28167695 -0.681101 1.0053369 -0.5384083 0.49352604 0.901995 0.12975353
-0.042371262 -0.29474607 0.15791987 -0.4038493 0.49222407 -0.15747277 0.38421464 0.11013645
-0.31908405 -0.44596025 -0.15143895 -0.10043756 0.030619647 0.25300613 -0.12181518 0.30551764
-0.22034618 0.17035301 -0.39318463 -0.048087616 0.44211683 0.14043888 -0.19587371 -0.33601028
0.11498055 0.67253524 -0.20189214 -0.31048152 0.30217758 0.2729604 0.21755023 -0.23005977
-0.45032358 0.34148064 0.23987372 0.008796154 -0.018896475 0.2851183 -0.20331056 0.033197574
-0.29262683 -0.2289368 -0.1918457 0.37232473 0.023517957 0.08353082 -0.06711173 0.09581117
-0.2945141 -0.31772763 0.035799876 -0.115823336 0.45373732 0.22217539 -0.2564129 -0.09171743
0.2716804 -0.011099464 0.12136397 0.76474893 -0.71177304 0.094851196 -0.24754485 -0.1618138

lstm.bias_ih_l0 f4 [256]
00000000: 66a8 793e 472b ad3e 1fca 313f cfd6 1b3e
00000010: a926 0b3f 0c17 be3e e9af 253e 6fc4 1f3f
00000020: af77 d73e e880 f33e 3c56 eb3e 4733 6e3e
00000030: fde5 663e 5145 893e ef4b 863e 86a1 963e
00000040: aaaf 973e 4d20 a23e 9728 8d3e c2d6 6b3e
00000050: 48ed db3d 8e32 d13e babc 063f 889f 003f
00000060: f2af c93e f965 1b3e 733b 943e 0f1c 783e
00000070: b370 b13e 4a29 913e 9353 bd3e 7e0c 5f3e
00000080: c585 843e 6c73 de3e 46c2 5f3e ca30 aa3e
00000090: 6b6e bb3d de9a 5b3e d97e 0c3f 4558 bc3e
000000a0: c1a5 073f 1760 5a3e b07b 343e a301 963e
000000b0: 0d3c 3a3e 2551 8c3e 5736 733e 2eb5 1a3e
000000c0: 9340 8a3e 6ad8 c73e 5606 ab3e 03fa 743e
000000d0: c17b 963e 62dc 533e a958 9d3d 50d5 ed3e
000000e0: eb18 5e3e 6aea bc3e b003 5f3e f779 ae3e
000000f0: c11c bf3e 4cbe a33e 5f87 023f caf0 a13e
00000100: 47d9 603d 0fb1 97bd 4f1d 073f 98b5 913d
00000110: 4457 ad3e d3ce 1fbd 3196 dfbd b953 6cbc
00000120: c878 ce3c c0f3 ab3d 0007 64bd 74e1 14bd
00000130: d64e 2f3c 7612 0d3e 7037 223e ab21 9a3d
00000140: da01 343d 93a8 31be 843b 7a3d 5b5a b73d
00000150: abc1 193d 1094 803e 27f9 81bd a979 443e
00000160: 8862 043d 0802 5fbd 193a 883d f1b6 913e
00000170: 3814 763e 4ba2 51bd f1c5 523c 8d77 443e
00000180: 6381 0dbe 727c 343e 8545 033d c1ad a83d
00000190: 01fc 043e 1ff9 023d add0 ec3d 761a 12be
000001a0: 1b81 b13d befc 56bd 105e 3cbd ac56 fe3d
000001b0: 50b8 113e d63c 713d c4f2 163d c146 783e
000001c0: 1ceb 123e 80ba 123e b57d a33d f680 fc3c
000001d0: a2f4 1c3d 527f 72bc 9ed1 003e f3e5 3e3e
000001e0: 56d9 1a3e c99f 0e3e 3cae 83bd b4d2 f73d
000001f0: 3a78 813d ab3b b73d bfe0 c53e 4e63 743e
00000200: 5d08 f8bd ec2d 49be 1762 fbbd 9dc0 0fbe
00000210: a6ce b43c b42b c63d ba79 723d f5c6 c83d
00000220: 64c3 58bd 712e 40be 5dea 123d 0c36 19be
00000230: 7df3 153e fc79 e23d acfb 5fbe bc08 a33d
00000240: 1a75 e2bd a95e 36bc ac44 4fbd ebe1 9abd
00000250: 134b 523d 86b6 003e c435 ab3d c4a7 54be
00000260: fcb6 1d3e 6a28 f33d 926f 01bd 37e0 a7bd
00000270: e44b b1bc 58d3 283e 4f16 98be f511 cabc
00000280: acbd 133c 0b6e 013e e92d 523e db53 39be
00000290: 2ce6 323e da41 103e 6f6c e83d 0fdd 183e
000002a0: d838 b03d a01a 10bd 0d17 81bd 230c 09bd
000002b0: 98a3 853e 5bc5 273b 4f6a f03d 339b 693e
000002c0: 0eb4 29bd 7d44 7dbe ecef fcbd 3354 d63d
000002d0: d399 763d ff66 48bd aa6e 4ebe a87f 943d
000002e0: f22b a53d 0781 adbd f7d0 fa3d 38b8 073d
000002f0: 22f8 d83d d466 a1bd 3725 433d f4df 3abd
00000300: 9a35 343e c1c5 e93e 5b9f 323f 1df1 b63d
00000310: 0560 0f3f 6bcc 663e d835 653e 88d4 173f
00000320: 1240 083f 30e1 ad3e 7482 c23e cc77 683e
00000330: a88b 273e 5fac 7b3e 69d8 e53e 5d90 9f3e
00000340: d1b0 e73e 66f6 b23e 4cf1 983e ae41 a43e
00000350: 955b 073e 0501 0f3f 9413 243f d193 823e
00000360: 482e 5d3e 898b f93d 1d11 013f 96cd c63e
00000370: 9fe6 893e 162c 9b3e 227b ee3e 8eeb 0d3e
00000380: 3137 193e 90ab c33e edbf 663e 4f2d dd3e
00000390: 6fd7 223e d93f 153e 12f1 f03e d5b0 b33e
000003a0: 461d 163f caf5 d83e edab 8d3e fadb 723e
000003b0: 45ed a63e a9fe 9a3e 7ee4 8c3e ab9e 973e
000003c0: 674f 913e 6b47 9e3e 9189 d83e 6d6c af3e
000003d0: abf6 cd3e 75c8 943e f961 243e e4ac e43e
000003e0: 7131 d83e cec1 883e 821e bd3e 38f8 f63e
000003f0: e09c eb3e 5bf1 393e 3f4a e23e 2532 293e
0.24380645 0.3382208 0.6944904 0.15218662 0.54355866 0.37126958 0.16180386 0.6240911
0.420835 0.47559285 0.4596423 0.23261748 0.22548671 0.26810697 0.26229808 0.29420108
0.2962621 0.3166527 0.2757003 0.23031142 0.10738617 0.40858883 0.52631724 0.50243425
0.39392048 0.15175618 0.28951606 0.24229454 0.34656295 0.28351814 0.36977825 0.21782109
0.25883308 0.43447435 0.21851453 0.33240348 0.0915192 0.21445796 0.54881054 0.36786094
0.52987295 0.21325718 0.17625308 0.29298124 0.1818697 0.27405658 0.23751198 0.15108177
0.2700239 0.39032298 0.3340327 0.23923497 0.29391292 0.20689538 0.07682926 0.46451807
0.21689193 0.36897594 0.2177875 0.34077427 0.37326625 0.31981122 0.5098781 0.3162902
0.05489471 -0.07406818 0.52779096 0.071147144 0.3385564 -0.039015602 -0.109173186 -0.014424258
0.025204077 0.08396101 -0.05567074 -0.03634782 0.010699948 0.13776574 0.1584146 0.07525953
0.04394708 -0.17349462 0.061091915 0.08952781 0.03753821 0.25112963 -0.0634635 0.19187035
0.03232053 -0.054445297 0.06651706 0.28459886 0.2403115 -0.051180165 0.012864576 0.1918623
-0.13818888 0.17625597 0.03204872 0.08236266 0.12986757 0.03197586 0.11563239 -0.14267907
0.08667203 -0.052487127 -0.045988142 0.12418875 0.14230466 0.05889591 0.036852613 0.2424574
0.143475 0.14328957 0.07982961 0.030823212 0.038319238 -0.014800863 0.12579963 0.18642406
0.1512197 0.1392814 -0.06429717 0.12100735 0.063217595 0.08946928 0.3864803 0.23866007
-0.1211097 -0.19646424 -0.122745685 -0.1403832 0.022071194 0.096763045 0.05919812 0.09803573
-0.052920714 -0.18767716 0.035868037 -0.14962023 0.14643665 0.11058423 -0.21873349 0.0796065
-0.110574916 -0.011130967 -0.0506026 -0.07562622 0.051341128 0.12569627 0.08359864 -0.20767123
0.15401834 0.11872943 -0.031600542 -0.081970625 -0.021642633 0.16486871 -0.2970452 -0.024666766
0.009017389 0.12639634 0.20525326 -0.18098395 0.17470616 0.1408762 0.11348807 0.14928077
0.08604592 -0.03518164 -0.06303225 -0.03345884 0.26101375 0.002559981 0.11739027 0.2281311
-0.04143148 -0.24733157 -0.12350449 0.104652785 0.060205292 -0.04892635 -0.20159402 0.07250911
0.080650225 -0.08471876 0.12246888 0.03313467 0.105942026 -0.07880941 0.047642913 -0.045623735
0.17598572 0.45658687 0.6977441 0.089327075 0.5600589 0.22538917 0.22383821 0.5930867
0.53222764 0.33960867 0.37990153 0.22701949 0.16361868 0.24577473 0.4489167 0.31164828
0.45252088 0.34953612 0.29871595 0.3208136 0.1321853 0.5586093 0.64092374 0.255034
0.21599686 0.12184817 0.5041674 0.38828725 0.26933762 0.30307072 0.46578318 0.13859388
0.1496246 0.3821683 0.22534151 0.4319863 0.15902494 0.14575137 0.47058922 0.3509585
0.5863842 0.42375022 0.2767023 0.23716727 0.32602897 0.30272415 0.27518076 0.29613242
0.28380892 0.30913863 0.42292455 0.3426241 0.40227255 0.29059187 0.16052999 0.44663155
0.4222522 0.2671036 0.36937338 0.4823625 0.46018124 0.18158476 0.4419727 0.16523035

lstm.bias_hh_l0 f4 [256]
00000000: be2f b63e 4229 d33e abb3 393f a87a f03d
00000010: be54 113f 8a19 cb3e 2377 963e c199 153f
00000020: 36fc 153f 4225 b03e 787e f73e c9cf 813e
00000030: f35a 763e fd5f 9b3e 2b10 963e bbe5 9b3e
00000040: ce84 d33e 3f85 793e 0828 383e d241 163e
00000050: da6f 773e 0d37 213f 1aa3 093f ce35 d03e
00000060: f866 333e 9511 3c3d 0f8a b53e d89e d73e
00000070: d3af d83e 94d2 b23e 491e e83e 6f1c b53e
00000080: f413 a03e 552f 8f3e 51c0 803e 1bb7 8e3e
00000090: a7ed aa3d 3599 7a3e 9820 013f 75a8 d33e
000000a0: e7a0 023f 9cc4 a13e 1175 943e e752 213e
000000b0: 1dba 623e 0fde 893e 329e c83e a8a4 bf3e
000000c0: a9ef 213e d828 fe3e 1d4f b13e 937a 8f3e
000000d0: 9037 7a3e 29e3 d83e bef2 4b3e 7098 a33e
000000e0: f522 383e 63c4 df3e 4606 6a3e 8df3 9e3e
000000f0: 6311 903e a0be a53e a425 e83e ca42 c03e
00000100: 6bf6 2c3d 8102 843d 82d4 f93e fa52 cf3d
00000110: feb3 813e fe12 a43d f250 15be 6ced bf3d
00000120: 9ddf 30bd a560 2b3e 9178 edbd 5876 0c3d
00000130: 700d 153e 14f4 013e 88f8 063e cfad 1a3e
00000140: 8678 933d 07c9 603d e86e 123e 724e 883c
00000150: d809 8cbd ff21 793e eaff 8f3d 3a89 a33e
00000160: 2de9 9e3d 259e 793d ce92 313e ed40 8f3e
00000170: fd77 8e3e 4e98 213e fd91 1abe 09b7 223e
00000180: 098d 73bc aa60 733e ec20 a63c 42bb 6c3d
00000190: 6cf6 b93d 1077 0d3e 7be5 6a3d 17c4 fe3b
000001a0: 7586 cabd cb41 3b3e 10d4 7fbc df7e 433e
000001b0: a47a 3f3e 9cfa b1bc dcc0 f13d bd07 703e
000001c0: 9d22 853e 9914 57bd 288e 153e dbb4 84bd
000001d0: 85e2 e43d dade 35bd 3eff 893d 37e8 3f3e
000001e0: f57f 09bc 6428 693c d0d6 593d cb26 163e
000001f0: 612f 893e cfc5 39bd bf2d d93e 80b7 1f3e
00000200: ad2d b7bd 7417 88bd 894a 9c3d 035a d8bd
00000210: 3154 4d3d d40e d3bb 4028 a73d 953f be3d
00000220: a784 223c 0d74 6cbe 99c2 21bd ece5 3fbe
00000230: d3b8 243e aa1a a4bc 2227 0dbe aecd 0fbe
00000240: f6f8 ecbb 31f9 23bd 983a 45bd 0c82 78bd
00000250: 6395 403e 9673 86bd fd98 67bd d845 3fbe
00000260: 0208 b13d dac2 843c 20ca 7abd 578d 03be
00000270: e35f 9a3d 547f d13d f7b6 afbe 0751 28be
00000280: 35f8 d0bd 5301 83bd 3b93 023e 4d25 29be
00000290: c7f5 013e 20a6 003e f8e6 2d3e 6cdd 7ebd
000002a0: 076a 22bc 2fbe 15be b542 12be d4ae 0e3e
000002b0: a8ad 713e 2945 dc3c 9d11 b63d bdba 313e
000002c0: 6dca 14be 0b39 60be 1d75 873c c985 273e
000002d0: 08cb ba3d 036a 463d 646c 27be b63f f33c
000002e0: 0baa 3e3e c744 a1bd 331f f43c f55f d0bc
000002f0: ebd1 3c3c 3359 003d 3dff 02be ac5a 0bbe
00000300: f89b 553e 67b8 e33e 82b4 213f 3bd3 973e
00000310: 2463 c83e 877a 903e 53c5 903e 76da 1b3f
00000320: 24e2 063f 665c a33e 4838 f83e 799b e83d
00000330: 7a75 1f3e 7122 943e 4bef b13e 2067 b43e
00000340: cdd4 863e fc6d bc3e 854b 393e ee17 a13e
00000350: b3a6 253e aa25 f33e 7d18 163f 164a c33e
00000360: f713 a43e a3eb 923e 54ea b33e 20e9 a13e
00000370: 404a 763e 507e b63e da0d ae3e 1873 763e
00000380: e6ae 923e 2663 a53e 2d3a 9a3d 71fa e73e
00000390: 1761 1e3e 1975 9f3e fc99 0b3f a204 8e3e
000003a0: e6f8 163f 4e64 443e 9ab0 343e f363 823e
000003b0: 203b 933e 7d99 b13e 3e22 c53e 6d37 7e3e
000003c0: bbae aa3e 9bed 033f 6dc9 d63e 8713 843e
000003d0: 514b cf3e 8ac8 783e b79a 683e f03a b53e
000003e0: a0dc 593e a759 dd3e 46a0 cf3e 1b24 0c3f
000003f0: 1e1f e73e 20f3 873e 5b67 e83e 93cd 3a3e
0.355833 0.41242415 0.72539777 0.11742145 0.5676993 0.39667922 0.2938777 0.58437735
0.5858797 0.34403425 0.48338675 0.2535384 0.24058132 0.3034667 0.2930921 0.30448708
0.4131226 0.24367236 0.1798402 0.14673546 0.24163762 0.62974626 0.537645 0.4066605
0.17519748 0.045915205 0.35456893 0.42113376 0.42321643 0.34926283 0.45335606 0.35373256
0.31265223 0.279658 0.25146726 0.27874073 0.0834611 0.24472506 0.5044036 0.4133946
0.5102677 0.31595314 0.28995565 0.15754281 0.22141309 0.2692723 0.39183193 0.3743031
0.1581408 0.49640536 0.3463067 0.28023204 0.24435258 0.4236081 0.19916818 0.31952238
0.17982085 0.4370452 0.22853956 0.3104519 0.28138265 0.32371998 0.45341218 0.37550956
0.04222719 0.0644579 0.48794943 0.101232484 0.25332636 0.08011435 -0.1458166 0.093714565
-0.043182004 0.16736086 -0.11595262 0.03429255 0.14555907 0.12690765 0.13180745 0.15105365
0.072007224 0.054879215 0.1430012 0.016638968 -0.06837815 0.24329375 0.070312336 0.31940633
0.077593185 0.060941834 0.17341158 0.27979222 0.2782592 0.15780756 -0.15094753 0.15890135
-0.014865168 0.23767343 0.02027937 0.05779577 0.09080204 0.1381495 0.057347756 0.0077748406
-0.09888927 0.18286817 -0.0156145245 0.19091366 0.18699127 -0.021725945 0.11804363 0.23440452
0.2600297 -0.052509878 0.1460501 -0.06479808 0.11176018 -0.04440198 0.06738137 0.18740927
-0.008392324 0.014230821 0.053183377 0.14663236 0.2679396 -0.04535466 0.42417714 0.15597343
-0.08944259 -0.06645098 0.07631404 -0.105640434 0.05012912 -0.0064409766 0.08161974 0.09289471
0.009919322 -0.23091145 -0.039492223 -0.18740052 0.1608613 -0.020032246 -0.13784459 -0.14043304
-0.007231827 -0.04003257 -0.048151582 -0.060670897 0.18806987 -0.06565015 -0.056542385 -0.18678987
0.086441055 0.016206194 -0.061227918 -0.12846886 0.0753782 0.10229364 -0.3431928 -0.1643716
-0.10203592 -0.06396737 0.12751476 -0.16518135 0.12691413 0.12563372 0.16982639 -0.062222883
-0.009912974 -0.1462333 -0.14283259 0.13933879 0.23601401 0.026888447 0.08890078 0.17356391
-0.14530344 -0.2189676 0.016535336 0.16359629 0.091207564 0.048440944 -0.16349941 0.029693466
0.18619554 -0.07874446 0.029800033 -0.02543638 0.011524658 0.031335067 -0.12792678 -0.13608807
0.20860279 0.44476625 0.6316606 0.29653344 0.39138138 0.2821848 0.28275546 0.6088022
0.52688813 0.31906432 0.4848044 0.11357779 0.15572158 0.28932527 0.3475288 0.35234928
0.2633423 0.3680266 0.18095215 0.3146357 0.16176872 0.47489673 0.58631116 0.3814246
0.32046482 0.28695402 0.35139716 0.31623173 0.24051762 0.35643244 0.33994943 0.24067342
0.28649062 0.32302207 0.075306274 0.4530826 0.15466724 0.31144026 0.54531837 0.2773791
0.5897354 0.19178888 0.17645493 0.2546688 0.28756046 0.34687415 0.38502687 0.24825831
0.33336434 0.5153443 0.4195055 0.25796148 0.4048715 0.2429525 0.22715269 0.35396528
0.21275568 0.43232462 0.40551966 0.5474259 0.45140928 0.26552677 0.45391354 0.18242483

fc.weight f4 [5, 64]
00000000: 0dc9 b2be e511 203f 551a 4ebf 6205 c93e
00000010: ab4f fb3d a153 91be 03e2 9a3e e9d6 29bf
00000020: ef24 843f 0d20 3a3e 8b59 fe3e 03df 49be
00000030: 4d76 813e 00e3 b5be 0fbe ea3e 7fb9 81be
00000040: b7be 273f a6a9 2e3f c0f8 0e3f 93ce 213f
00000050: f575 b23e 2140 dfbe 99f4 37bf b83a 003e
00000060: 9bf3 e5bc cdad 303e f958 41be 8e33 81bc
00000070: 0fee 933e 8bf5 853e 15ac c53f 49a2 94be
00000080: 20fd 10bf a4dd 5bbf 20e4 863d 53f3 9e3f
00000090: 007a b1bd 273b 20bf c25c cabe c5b3 efbd
000000a0: 360b 35bf 3d4f 673f 1ad2 efbe 9bef a8be
000000b0: 31fe 82bd ec2c d23e 66c1 a43e bfef dcbe
000000c0: cdf9 ff3e aa1d 4e3f d45a cebe e7a5 db3e
000000d0: 363b d3be c749 f5be de84 28be 1b99 903e
000000e0: 7e78 29bf d1dc 2cbf 6772 febe e1e1 fe3e
000000f0: 8bf1 12bf 6d28 ab3e 0e40 6f3f 0b42 aa3e
00000100: 1a96 0c3d 9525 833f 32f6 873f 5c74 08bd
00000110: 2927 b13e f309 053e be12 aa3e 6eb0 01bf
00000120: 88f6 1f3f 4424 003f 30d3 843e 0958 4dbd
00000130: 0710 9e3e 4793 5cbd f4c2 25bd b9f4 2a3f
00000140: 3bc3 c93e a3bd 6cbd 24e6 72be caf1 923e
00000150: fa50 993e b5f6 d6be 77a8 a43e d182 573e
00000160: fb72 e4bd 5138 19bd 2943 313e 925d 0e3f
00000170: 81c4 08bf 581b bd3d 6180 f4be 0a85 f23e
00000180: fd5b 233e 2829 89be 2cc2 67bd ca86 58be
00000190: 780e 1ebd fd54 2a3d 357f 773d 5b69 8d3e
000001a0: 119c c03e f7c2 dd3e 01b5 203d 8db8 39bd
000001b0: c538 13be 7949 03bf 957b 053f 4944 2c3e
000001c0: 8f2b 31be 407b 763f fffd a63c cbe1 193f
000001d0: fdfe 8bbf 0f4f 6bbf 7d36 a5bd 1eb3 cd3e
000001e0: 9e72 973d 03da 6cbd a606 ddbe 016b b2be
000001f0: fac3 a33e b4ff 39be f8c0 9ebe bcf3 d63d
00000200: 5645 f5bd 35d9 d9be 97c0 e4be acd8 383e
00000210: 299e 19bf 617e 8c3e 401b b93d 705b 7bbe
00000220: f582 69be d215 babb 385c f5be 7f34 88be
00000230: 7112 223e d684 80be 5c76 aabd f1a0 8bbe
00000240: c509 58be fbcd 5b3e 6a92 993e fb10 d9be
00000250: 22bc 81be 3fb7 103e 9325 c3bd 0eb7 783e
00000260: 7ab0 923e ea43 9e3c 2dd7 613e 2635 bebe
00000270: 2c9a ee3e 8b6d 8a3d c336 8b3e 454f 0fbf
00000280: 9bed b7bd f85f 9b3e f301 953e 8697 7a3d
00000290: c3a5 5b3e 65a5 c43d 5ba6 593e 1982 683e
000002a0: 62d2 9dbe f88c 06be a91f 99be b9aa 7e3d
000002b0: b48c 913e f61f 9c3d 73c4 fbbc f0d9 8b3d
000002c0: c4ba de3c 9cc1 b6be 411c 66be 2bb3 a0be
000002d0: b463 0b3f 47a0 eb3e 53c5 70be 34da b8be
000002e0: c6b4 843e 9c6f cb3d e39a 163f e2e2 32bd
000002f0: a1c2 7d3c 8392 5dbe c3e9 053e faf1 56bd
00000300: 67c8 97be dc65 4ebe 911e f73e 0525 123e
00000310: 30ac 193f 3690 00bf 9cd0 21bf f689 eb3e
00000320: 987c a2be 1250 ebbd a036 aabe 16d6 d53e
00000330: 214c 28bf 32b9 3e3f 8d02 07bd 93fe 4d3e
00000340: c9b7 b4be 8046 ecbe 589b a2be c783 87be
00000350: 0287 29bf 08c3 173f c090 f03e 6bfa 05be
00000360: 1c93 943e 6ae0 55bf 04c9 5cbf ab0f 8d3e
00000370: 9e49 033d 03c8 9a3e 2389 76be 2bfa 013f
00000380: f76d 253f 2d39 b23e 4a28 82be 020d abbe
00000390: 06de 2dbf 66f0 2c3e bd38 c93e 7b94 3ebf
000003a0: 35b8 dc3e 345a 5cbe 3058 6b3e 327c edbd
000003b0: dc40 cbbe 113e 113f c88a 3fbe 5613 273e
000003c0: 3f2b 0dbe 72e0 afbe 692b 2a3f 8166 ddbe
000003d0: a19c 003f 530d b43e 030d 743f a69a 2ebf
000003e0: db51 413e f1dd 20bd be9e 903e b6bf 1ebf
000003f0: f146 293f 0897 863e 8b52 a9be 985f 5e3e
-0.34919015 0.62527305 -0.8050893 0.3926192 0.12271055 -0.28384116 0.30250558 -0.6634355
1.0323771 0.18176289 0.4967769 -0.19713978 0.2528557 -0.3552475 0.45848128 -0.25336835
0.6552538 0.6822761 0.5584831 0.6320583 0.3485562 -0.43603614 -0.718576 0.125224
-0.028070262 0.172538 -0.18881597 -0.015771654 0.28892562 0.26163897 1.544314 -0.29030064
-0.5663624 -0.8588507 0.0658648 1.2418007 -0.08665848 -0.6259026 -0.39523894 -0.1170421
-0.7072023 0.90355283 -0.46839982 -0.32995304 -0.063961394 0.41049898 0.321788 -0.43151662
0.4999527 0.80514014 -0.4030367 0.4290001 -0.41256112 -0.4790785 -0.16456935 0.2824181
-0.6619948 -0.6752444 -0.49696657 0.49781707 -0.57399815 0.3342928 0.93457115 0.33253512
0.034322836 1.0245844 1.0622008 -0.033314094 0.3460019 0.12992077 0.33217424 -0.50659835
0.6248555 0.50055337 0.25942373 -0.050132785 0.30871603 -0.053851392 -0.040469125 0.6677967
0.39406762 -0.05779804 -0.23720604 0.28700095 0.29944593 -0.41985098 0.32159778 0.21045996
-0.11154743 -0.037407223 0.17310776 0.55611527 -0.5342484 0.09233731 -0.47754195 0.47367126
0.1595306 -0.26789212 -0.05658166 -0.21145168 -0.038588017 0.041584957 0.06042405 0.27619442
0.3761907 0.4331281 0.03923512 -0.045342017 -0.14377125 -0.51283985 0.52141696 0.16822924
-0.17301773 0.96281815 0.020384787 0.6011016 -1.0937191 -0.9191751 -0.080670334 0.40175718
0.07394908 -0.0578251 -0.43169135 -0.34847263 0.31985456 -0.18163949 -0.31006598 0.104957074
-0.119761154 -0.42548528 -0.44678184 0.18051404 -0.6000696 0.2744017 0.09038401 -0.245466
-0.22803862 -0.0056788707 -0.4792192 -0.2660255 0.15827347 -0.25101346 -0.083233565 -0.27271226
-0.21097477 0.21465294 0.29994518 -0.42395768 -0.25338846 0.14132403 -0.09528651 0.2428858
0.28650266 0.019319493 0.2205474 -0.37149924 0.46602 0.06759175 0.27190217 -0.5598033
-0.089808665 0.30346656 0.2910305 0.06117966 0.21449952 0.09601859 0.21254866 0.22705878
-0.30824572 -0.13139713 -0.29906967 0.062174533 0.2842766 0.076232836 -0.030733323 0.06828678
0.027188666 -0.35694587 -0.22471716 -0.31386694 0.5444901 0.4602072 -0.23512773 -0.36103976
0.2591917 0.09933397 0.5883009 -0.043673404 0.015488298 -0.21637921 0.13077454 -0.05247686
-0.29645082 -0.20156044 0.48265508 0.14271934 0.6002836 -0.5022005 -0.6320894 0.46003693
-0.31735682 -0.114898816 -0.332448 0.41764897 -0.65741163 0.74501336 -0.032961417 0.20116644
-0.35296467 -0.46147537 -0.31759143 -0.26467726 -0.6622163 0.5928197 0.46985435 -0.13083808
0.29018486 -0.83545554 -0.86244226 0.27551016 0.03205263 0.30230722 -0.24075751 0.5077235
0.6462092 0.34809247 -0.25421363 -0.33408362 -0.67916906 0.1688858 0.393011 -0.74445313
0.4310929 -0.21518785 0.2298286 -0.11595954 -0.3969792 0.5673533 -0.18705285 0.1631597
-0.13786028 -0.34350926 0.6647249 -0.43242267 0.50238997 0.35166416 0.95332354 -0.68204725
0.18878882 -0.03927416 0.2824611 -0.6201128 0.66123873 0.26287103 -0.33070788 0.21716154

fc.bias f4 [5]
00000000: eff5 c13d b41f 5b3d 10fc 1c3e 980c 9abd
00000010: db0d 06bc
0.09470736 0.05349703 0.15330529 -0.07521933 -0.008182014
