code/model/rnn_posture_model.pth (torch, 93100 bytes, 6 tensors)

lstm.weight_ih_l0 f4 [256, 21]
-0.15700623 0.20349562 0.22996947 -0.07937935 0.33381942 -0.33595908 0.1050752 0.42836434
-0.1780119 0.07943452 0.39259413 -0.23372972 -0.03089232 0.5717448 -0.29816458 0.16124591
0.4896121 -0.17347124 0.08645943 0.6358259 -0.2696153 -0.69033164 -0.19469479 0.20304224
-0.2704219 0.53340393 -0.5204239 -0.03340665 0.49114496 0.03634834 -0.153177 0.21170813
-0.667104 0.11303272 0.41839367 -0.21716808 0.04027704 0.22909002 -0.44448265 -0.06294994
0.3772914 -0.3871004 -0.16333234 0.5118422 0.47491214 0.3908502 0.14793421 0.13218127
0.28016874 0.3436874 0.5264382 0.25523502 0.083644286 0.27843165 0.41987836 0.33935505
0.5996541 0.2769538 0.29529843 0.44424227 0.34064996 0.29670677 0.41352782 -0.12636422
0.32373056 0.38513795 -0.41822067 0.5015443 0.29871917 -0.29747704 -0.009606052 0.4106014
-0.32399595 0.09647084 0.34428892 -0.124109104 0.037321493 0.23963207 -0.25926495 0.19025855
0.2590827 -0.25880688 0.08491012 0.40868056 0.27368337 0.08621235 -0.012307575 0.06202068
0.23428354 -0.28441602 -0.026282908 -0.1250578 0.052530404 0.039108112 0.06907837 0.071778
0.02312003 -0.098126456 0.068652846 -0.1716604 0.12005492 0.14707905 0.090743445 -0.11651987
0.014850454 -0.20253018 0.6134509 0.09821696 0.051699836 0.14586194 -0.11129592 0.1798008
0.3166572 0.11160151 0.0665203 0.03818516 -0.33454496 0.071306355 0.19720788 -0.22222304
0.08839143 0.02390164 -0.18236771 0.15611443 0.11256709 -0.28521112 0.05727966 0.26082852
0.051939182 -0.65677536 0.42357653 0.013435177 -0.050202206 0.15977451 0.04357806 -0.25082946
0.43479657 0.020184789 0.07168273 0.25199726 0.1584581 0.036064535 0.26966256 0.039532848
0.12282981 0.39287612 -0.007749725 0.33281913 0.294872 0.06608991 -0.34627604 0.4386156
0.10889529 -0.0070698373 -0.13055721 0.031065978 -0.39136115 0.2749585 0.13386212 -0.032899603
0.038292494 0.059121124 -0.29315442 0.3066054 0.120492436 0.019834932 0.415878 0.044892117
1.0854449 0.9285203 0.18485743 0.7716225 0.06296483 -0.31299797 0.8901339 0.5956777
0.025960771 0.8867011 0.11370615 -0.3042591 1.009929 0.2663859 0.078562714 0.88016784
0.0863963 0.026198817 1.114065 0.21549352 -0.08232445 -0.36901036 -0.06070785 0.3799215
-0.14496334 0.061801527 0.09950798 -0.09635191 0.46203664 0.26026165 0.1518723 0.16606607
0.08156341 -0.024981555 0.28778717 0.037521597 0.22815865 0.27883372 0.050286815 0.14829303
0.21947905 0.13311636 -0.28819117 -0.036289707 -0.22306354 0.24893324 -0.20436132 -0.16594943
-0.13597415 0.16423585 -0.14134058 0.04974638 -0.09098889 -0.06333608 -0.08933275 0.17276314
-0.1424234 0.11516059 -0.042873092 -0.027903255 0.09087016 -0.075047106 0.007067149 -0.9248843
-0.5927568 0.103946246 -0.48012337 0.36814523 0.17141086 -0.91386896 -0.25229278 0.05361905
-0.9871809 0.25719196 0.15686344 -1.0071847 -0.10372958 0.015794931 -0.8559258 0.25938082
-0.08200529 -0.8107432 -0.02486686 -0.06326512 -0.24224165 0.13676758 0.54104793 0.07778305
00000000: 3ec6 20be 2861 503e 1e7d 6b3e a491 a2bd
00000010: 61ea aa3e d402 acbe ab31 d73d 9252 db3e
00000020: c048 36be 91ae a23d 1902 c93e d856 6fbe
00000030: e411 fdbc de5d 123f 07a9 98be a61d 253e
00000040: 70ae fa3e 72a2 31be a411 b13d 7cc5 223f
00000050: 040b 8abe 93b9 30bf 125e 47be 4eea 4f3e
00000060: bd74 8abe 298d 083f 803a 05bf 69d5 08bd
00000070: 5a77 fb3e ffe1 143d 6eda 1cbe 04ca 583e
00000080: 54c7 2abf b37d e73d b237 d63e 4f61 5ebe
00000090: 8af9 243d 9396 6a3e 3b93 e3be e6eb 80bd
000000a0: 572c c13e 0632 c6be 9840 27be 1708 033f
000000b0: af27 f33e 841d c83e 117c 173e 875a 073e
000000c0: 4772 8f3e cbf7 af3e a7c4 063f 2aae 823e
000000d0: b24d ab3d 988e 8e3e 4cfa d63e f2bf ad3e
000000e0: ee82 193f e3cc 8d3e 5b31 973e b973 e33e
000000f0: ac69 ae3e f3e9 973e ebb9 d33e 9f65 01be
00000100: 03c0 a53e cd30 c53e 0521 d6be 3565 003f
00000110: b8f1 983e e94e 98be b462 1dbc 593a d23e
00000120: cce2 a5be 8192 c53d a346 b03e ea2c febd
00000130: 6cde 183d 1c62 753e 60be 84be 23d3 423e
00000140: 7da6 843e 5682 84be 5be5 ad3d 943e d13e
00000150: 3a20 8c3e 1a90 b03d b6a5 49bc 6609 7e3d
00000160: 06e8 6f3e fa9e 91be 414f d7bc 270f 00be
00000170: 1f2a 573d d42f 203d f678 8d3d 5800 933d
00000180: 3866 bd3c 86f6 c8bd dd99 8c3d bec7 2fbe
00000190: 5bdf f53d e49b 163e b3d7 b93d f8a1 eebd
000001a0: 524f 733c 1264 4fbe 1e0b 1d3f f925 c93d
000001b0: 35c3 533d d55c 153e 1eef e3bd b31d 383e
000001c0: e420 a23e 558f e43d cc3b 883d 0b68 1c3d
000001d0: 7a49 abbe 1109 923d ddf0 493e 708e 63be
000001e0: 9106 b53d 5fcd c33c 9abe 3abe 76dc 1f3e
000001f0: 9389 e63d 3107 92be 149e 6a3d 518b 853e
00000200: 2ebe 543d 6e22 28bf 06df d83e 371f 5c3c
00000210: d4a0 4dbd ee9b 233e e87e 323d b86c 80be
00000220: a89d de3e 925a a53c 65ce 923d c905 813e
00000230: d742 223e 68b8 133d 3611 8a3e 32ed 213d
00000240: 328e fb3d 0f27 c93e 68f1 fdbb 4567 aa3e
00000250: 76f9 963e 265a 873d 184b b1be 3992 e03e
00000260: 7e04 df3d 18aa e7bb cab0 05be 147e fe3c
00000270: 7d60 c8be 5cc7 8c3e 2713 093e bcc1 06bd
00000280: 97d8 1c3d fe28 723d 5618 96be 62fb 9c3e
00000290: bdc4 f63d de7c a23c f6ed d43e cce0 373d
000002a0: dcef 8a3f 82b3 6d3f 444b 3d3e 0d89 453f
000002b0: b4f3 803d 4541 a0be d1df 633f 557e 183f
000002c0: afab d43c d8fe 623f c5de e83d d9c7 9bbe
000002d0: 5a45 813f bc63 883e 7de5 a03d ae52 613f
000002e0: 8bf0 b03d e79e d63c af99 8e3f 55aa 5c3e
000002f0: b999 a8bd edee bcbe cba8 78bd 1285 c23e
00000300: 4571 14be 9923 7d3d d7ca cb3d 2654 c5bd
00000310: 1190 ec3e 0441 853e 6a84 1b3e 390d 2a3e
00000320: b80a a73d 1ea6 ccbc d758 933e 3fb0 193d
00000330: 6ca2 693e 4bc3 8e3e 8cf9 4d3d 21da 173e
00000340: 1ebf 603e a84f 083e cb8d 93be 84a4 14bd
00000350: c56a 64be 5be8 7e3e 1844 51be a6ee 29be
00000360: cf3c 0bbe 712d 283e 96bb 10be dcc2 4b3d
00000370: 6258 babd 59b6 81bd 17f4 b6bd d2e8 303e
00000380: 71d7 11be 51d9 eb3d b29b 2fbd 5e95 e4bc
00000390: 221a ba3d 4cb2 99bd 8b93 e73b 38c5 6cbf
000003a0: e9be 17bf c5e1 d43d bbd2 f5be 887d bc3e
000003b0: 5486 2f3e 51f3 69bf 852c 81be a69f 5b3d
000003c0: e3b7 7cbf aaae 833e cfa0 203e 6eeb 80bf
000003d0: 2d70 d4bd 5f64 813c f41d 5bbf 90cd 843e
000003e0: 64f2 a7bd de8c 4fbf 96b5 cbbc 2591 81bd
000003f0: 320e 78be cd0c 0c3e 1e82 0a3f b84c 9f3d

lstm.weight_hh_l0 f4 [256, 64]
-0.5240489 0.27682436 -0.30967396 -0.29263726 0.1805806 -0.17110223 -0.39225686 0.048382763
0.47513294 0.4234974 -0.3965116 -0.02567687 0.34017122 -0.038411032 0.1694337 0.069844775
0.2587264 -0.5058052 0.1919515 0.3215497 0.10755457 -0.226192 -0.17358148 0.6085351
-0.10897624 0.3060271 0.017677335 -0.056399982 0.16208869 0.204021 -0.39050972 0.04964133
-0.18750477 -0.17369547 0.18728667 0.23629452 -0.17071535 0.20037761 -0.09299367 -0.26044896
-0.23777999 0.0767053 0.20548388 -0.2197428 0.026612032 0.6483825 -0.21476501 0.12964986
0.09398045 -0.34137562 0.2205372 -0.17113498 -0.026722914 0.48855022 0.18198796 -0.016391195
0.014789022 0.24612449 0.53826404 -0.32284334 0.4605919 0.01847351 -0.013266357 0.28888685
-0.4415655 0.5695906 -0.42786306 -0.30284616 0.25232548 -0.27086404 -0.41388097 -0.009154668
0.32515013 0.115209945 -0.102005355 -0.048969787 0.5468824 -0.010664904 0.13096428 -0.01708864
-0.010338647 -0.3822772 -0.002450229 0.29097655 -0.14162174 -0.1861109 -0.2943088 0.30713636
-0.26231462 -0.09986136 0.10232763 -0.0074509033 0.0732957 0.08699166 -0.18070361 0.15205237
-0.067585304 0.04412026 0.1381289 -0.1468554 -0.18701173 0.252089 -0.111401804 -0.53237414
-0.074971266 -0.028622637 0.13679206 0.13666578 -0.1067209 0.5565976 -0.13958114 0.29682875
0.1478918 -0.23821071 0.46506667 0.08017574 -0.42572322 0.61609566 0.27321604 0.38091055
-0.04153081 0.16739082 0.5805396 -0.30443949 0.06580726 -0.014228249 0.045808967 0.18286881
-0.21018387 0.44350278 -0.40921298 -0.08220501 0.2746311 0.0055910572 0.035044625 0.19983062
0.2882451 0.42196974 -0.5426309 0.07782464 -0.1614828 -0.21837859 -0.04861376 -0.14297031
-0.29899952 -0.35681584 0.395817 0.45955402 -0.20122775 -0.25690806 -0.1306063 0.12903425
-0.18594843 0.2749794 0.31488377 -0.1757118 -0.13420236 0.5031041 -0.52258635 -0.086664066
-0.28011715 0.25878963 0.45831367 -0.09128319 -0.4325999 0.46901247 0.032083232 -0.07576539
-0.3052456 -0.285996 0.2927188 0.29046348 -0.07597689 0.10538814 -0.22288929 0.56009734
0.33043694 -0.36382997 0.4693051 -0.30468372 -0.10624458 0.5517994 0.42595297 -0.1393839
-0.15541929 0.44725132 0.10522774 -0.2790417 0.45426422 0.24251643 0.25785905 0.5051821
-0.33759338 0.29720455 -0.22901079 0.0023111121 0.16327888 -0.12942147 -0.06336175 0.3339478
0.3811728 0.37969702 -0.14614843 0.24449466 -0.09846033 0.0033667192 0.27277285 0.09576698
-0.13713023 -0.31750578 0.23599905 0.3069037 -0.06859061 -0.38770905 -0.26020947 0.373236
-0.04589776 0.5393399 0.05781476 -0.056928314 0.33737692 0.23178844 -0.40827155 -0.0050985706
0.068984866 -0.08284596 0.28439066 0.10445545 -0.32638952 0.34057853 -0.17384417 -0.067232214
-0.20878705 -0.20184548 0.28290966 -0.18275948 -0.13720751 0.054535676 -0.1038073 0.32136217
0.23919609 -0.16567378 0.17051399 -0.3894527 0.11679655 0.27417773 0.017850278 -0.09226069
-0.21836716 0.11665854 0.026664464 -0.28272495 0.30052942 0.16297032 0.19828092 0.25714734
00000000: 1228 06bf ecbb 8d3e 968d 9ebe 8dd4 95be
00000010: 1fea 383e 6c35 2fbe e4d5 c8be 012d 463d
00000020: a044 f33e a7d4 d83e 9203 cbbe 4d58 d2bc
00000030: ec2a ae3e e354 1dbd 0780 2d3e c70a 8f3d
00000040: c977 843e 737c 01bf ef8e 443e 2aa2 a43e
00000050: 9245 dc3d e09e 67be 58bf 31be f5c8 1b3f
00000060: ef2e dfbd 96af 9c3e 0fd0 903c ab03 67bd
00000070: 94fa 253e e2ea 503e e4f0 c7be b554 4b3d
00000080: 4001 40be 3add 31be 14c8 3f3e 31f7 713e
00000090: 01d0 2ebe ca2f 4d3e 7773 bebd 9159 85be
000000a0: 997c 73be ab17 9d3d 5e6a 523e 4204 61be
000000b0: 7a01 da3c 65fc 253f 5ceb 5bbe efc2 043e
000000c0: d278 c03d c9c8 aebe 81d4 613e 023e 2fbe
000000d0: 03ea dabc 4123 fa3e 0d5b 3a3e d446 86bc
000000e0: a74d 723c 0f08 7c3e accb 093f b94b a5be
000000f0: b4d2 eb3e c255 973c 225b 59bc fae8 933e
00000100: e014 e2be b1d0 113f de10 dbbe a70e 9bbe
00000110: ce30 813e b1ae 8abe 35e8 d3be 76fd 15bc
00000120: 147a a63e 31f3 eb3d 2fe8 d0bd 8b94 48bd
00000130: 7c00 0c3f d9bb 2ebc 801b 063e 7afd 8bbc
00000140: 6e63 29bc d6b9 c3be 0594 20bb e1fa 943e
00000150: 4a05 11be db93 3ebe a5af 96be fa40 9d3e
00000160: 1a4e 86be 1d84 ccbd 2691 d13d b526 f4bb
00000170: 0e1c 963d af28 b23d 5e0a 39be 9eb3 1b3e
00000180: 2a6a 8abd 72b7 343d aa71 0d3e 4361 16be
00000190: 0180 3fbe cf11 813e a126 e4bd ac49 08bf
000001a0: 898a 99bd 057a eabc 3813 0c3e 1df2 0b3e
000001b0: 7d90 dabd 2e7d 0e3f 5cee 0ebe f0f9 973e
000001c0: f370 173e 82ed 73be 381d ee3e 2e33 a43d
000001d0: 65f8 d9be 72b8 1d3f f9e2 8b3e b506 c33e
000001e0: 361c 2abd 8068 2b3e 3e9e 143f 7edf 9bbe
000001f0: f5c5 863d 9a1d 69bc 2fa2 3b3d f641 3b3e
00000200: 713a 57be cc12 e33e 5d84 d1be 1a5b a8bd
00000210: 739c 8c3e 3035 b73b f48a 0f3d 66a0 4c3e
00000220: dd94 933e 6b0c d83e dce9 0abf 8662 9f3d
00000230: bf5b 25be a39e 5fbe 391f 47bd cf66 12be
00000240: 7716 99be 91b0 b6be 87a8 ca3e aa4a eb3e
00000250: a60e 4ebe 7489 83be a8bd 05be 8e21 043e
00000260: 4469 3ebe 1aca 8c3e 7238 a13e cbed 33be
00000270: 586c 09be 6ecb 003f 38c8 05bf ee7c b1bd
00000280: 846b 8fbe 1380 843e 17a8 ea3e aef2 babd
00000290: bc7d ddbe 6722 f03e b569 033d e32a 9bbd
000002a0: 2749 9cbe 116e 92be 3ddf 953e a1b7 943e
000002b0: c699 9bbd bdd5 d73d 173d 64be 8a62 0f3f
000002c0: 082f a93e ec47 babe c248 f03e 81ff 9bbe
000002d0: c296 d9bd ba42 0d3f 8216 da3e a7ba 0ebe
000002e0: 3c26 1fbe 20fe e43e a481 d73d 8ede 8ebe
000002f0: 5295 e83e 3a56 783e 1a06 843e 9d53 013f
00000300: 0ad9 acbe 322b 983e ce81 6abe 0776 173b
00000310: 9432 273e 1087 04be cec3 81bd 35fb aa3e
00000320: 1529 c33e a667 c23e efa7 15be cf5c 7a3e
00000330: 92a5 c9bd 2da4 5c3b e2a8 8b3e 7a21 c43d
00000340: de6b 0cbe 1e90 a2be bca9 713e 7b22 9d3e
00000350: 3c79 8cbd cd81 c6be 2d3a 85be ca18 bf3e
00000360: 4aff 3bbd 2e12 0a3f 2bcf 6c3d aa2d 69bd
00000370: abbc ac3e f359 6d3e f808 d1be e911 a7bb
00000380: f047 8d3d 25ab a9bd a79b 913e bdec d53d
00000390: 871c a7be 4f60 ae3e 3504 32be 0bb1 89bd
000003a0: 46cc 55be 95b0 4ebe 89d9 903e 4d25 3bbe
000003b0: 2080 0cbe cd60 5f3d ec98 d4bd 9589 a43e
000003c0: d2ef 743e 63a6 29be 389b 2e3e 5866 c7be
000003d0: 0833 ef3d 0661 8c3e bf3a 923c 2cf3 bcbd
000003e0: a49b 5fbe acea ee3d 6f6f da3c 53c1 90be
000003f0: fede 993e b1e1 263e 270a 4b3e d1a8 833e

lstm.bias_ih_l0 f4 [256]
0.35601696 0.41198444 0.34256124 0.25487816 0.2130216 0.14039765 0.3925706 0.2781201
0.19332275 0.35043773 0.5345715 0.16770922 0.34975436 0.16538991 0.15990716 0.33949256
0.30431345 0.23015948 0.2653501 0.16857639 0.25149274 0.10668153 0.122900054 0.20160289
0.1664956 0.1888154 0.35728255 0.15880631 0.3156801 0.31046638 0.2662632 0.19982134
0.34254393 0.087323904 0.49669096 0.082518764 0.23725946 0.24924327 0.32675505 0.309247
0.1484707 0.0738385 0.38390407 0.17110312 0.3376749 0.2177663 0.17233065 0.4452642
0.15218145 0.12730365 0.17099087 0.2594304 0.21868528 0.42357212 0.19243209 0.27416253
0.22328404 0.2675165 0.37511352 0.09256464 0.33182546 0.23246145 0.301255 0.37268388
0.12454267 0.45582572 0.014453636 -0.049526524 0.024175912 0.03186137 0.05168755 0.11640496
0.287085 0.16738455 0.34535208 0.07682715 0.0845033 -0.043956347 0.09070061 0.021570785
-0.17251134 -0.012763823 0.13143761 -0.0023578643 0.08087063 0.16332652 0.049513742 0.04495494
0.100011975 0.1987025 0.065509625 -0.06366315 0.26562977 -0.026855472 0.0759757 0.061604924
0.20879534 0.20437759 0.17781338 0.034435485 0.058004968 0.16073383 0.1481502 0.105038635
0.062158458 0.07731688 -0.023178197 0.01269467 0.05983263 0.046635233 0.048991565 -0.0758948
-0.020588575 0.08143326 0.03536641 0.13514052 0.2206732 0.2447285 0.07238766 0.28950348
-0.045014426 0.038593657 0.16512468 0.11823269 -0.025006713 0.18959606 0.2197198 -0.04508516
-0.18654832 0.031507604 0.034997 -0.07783928 0.19105141 -0.07103212 -0.04717661 0.12921885
0.16993132 0.2081853 -0.036560673 0.1310845 0.020570708 -0.1300362 0.065205544 -0.05155603
-0.08323828 -0.17408784 0.21051532 0.1036586 0.11530351 -0.22227141 -0.18179409 0.14062537
0.1643164 0.068642884 0.08473404 -0.12895708 0.096840724 0.06752707 -0.17255522 0.03535614
0.070969395 0.09407439 0.07998578 -0.07362266 -0.15984544 0.15320723 -0.16952457 0.07950862
-0.21485923 -0.21123837 0.139114 -0.1228084 -0.054560393 -0.032831408 -0.23014687 0.10439866
0.16985929 -0.08943255 0.12515289 -0.15475875 -0.14084809 0.11427819 -0.085815944 0.014228856
-0.18917187 0.08171021 0.121706314 -0.102965094 0.05527368 0.049621515 0.012736758 0.24263807
0.3199682 0.35920298 0.22187288 0.111751385 0.17900659 0.21903923 0.4099434 0.2726108
0.35021156 0.29570952 0.50000465 0.28611833 0.3486122 0.14946537 0.32154438 0.11735291
0.19936153 0.25749397 0.17854583 0.24398984 0.18602198 0.31483203 0.15716827 0.3096791
0.24302813 0.16834623 0.17973283 0.013531095 0.24175864 0.50033265 0.33486113 0.34105927
0.18635848 0.15271483 0.4676433 0.19082408 0.318928 0.2762409 0.21668096 0.16752326
0.30170938 0.13169521 0.2574676 0.33366847 0.17961407 0.35781088 0.1565727 0.30038214
0.3704183 0.2378588 0.103921965 0.1999998 0.36751515 0.28301698 0.27865005 0.24889305
0.1737746 0.24950947 0.3190369 0.16185953 0.22141202 0.3236268 0.40375042 0.32448205
00000000: db47 b63e a0ef d23e 3064 af3e 647f 823e
00000010: 5622 5a3e 67c4 0f3e 04ff c83e c265 8e3e
00000020: 66f6 453e 936c b33e aed9 083f f7bb 2b3e
00000030: 0113 b33e f95b 293e b4be 233e f8d1 ad3e
00000040: f9ce 9b3e edae 6b3e f8db 873e 4a9f 2c3e
00000050: a8c3 803e d97b da3d 06b3 fb3d fd70 4e3e
00000060: d37d 2a3e d358 413e bded b63e 1f9e 223e
00000070: d2a0 a13e 73f5 9e3e a653 883e f79d 4c3e
00000080: eb61 af3e e0d6 b23d 474e fe3e 99ff a83d
00000090: 25f4 723e a139 7f3e 704c a73e 9f55 9e3e
000000a0: b408 183e a438 973d 138f c43e a835 2f3e
000000b0: b9e3 ac3e 21fe 5e3e 7277 303e abf9 e33e
000000c0: 74d5 1b3e e35b 023e 3b18 2f3e 10d4 843e
000000d0: 09ef 5f3e 72de d83e eb0c 453e 085f 8c3e
000000e0: 92a4 643e ecf7 883e e10e c03e 8892 bd3d
000000f0: 07e5 a93e 600a 6e3e 183e 9a3e 6cd0 be3e
00000100: 3a10 ff3d fd61 e93e f1ce 6c3c 53dc 4abd
00000110: 900c c63c 1181 023d 53b6 533d b965 ee3d
00000120: cefc 923e db66 2b3e fdd1 b03e 8e57 9d3d
00000130: 1110 ad3d 920b 34bd 3ec1 b93d 37b5 b03c
00000140: d0a6 30be 5b1f 51bc 9597 063e 6686 1abb
00000150: 809f a53d 113f 273e ecce 4a3d ac22 383d
00000160: 14d3 cc3d ab78 4b3e e929 863d d361 82bd
00000170: a000 883e 0200 dcbc 2699 9b3d 7255 7c3d
00000180: 72ce 553e 5c48 513e b614 363e 390c 0d3d
00000190: 9e96 6d3d 6997 243e b0b4 173e 7f1e d73d
000001a0: de99 7e3d 5058 9e3d 34e0 bdbc 4efd 4f3c
000001b0: 0f13 753d 9604 3f3d 61ab 483d bc6e 9bbd
000001c0: 5fa9 a8bc 7bc6 a63d 5edc 103d 4762 0a3e
000001d0: 28f8 613e 1c9a 7a3e fb3f 943d cd39 943e
000001e0: 0c61 38bd 6214 1e3d 7216 293e fb23 f23d
000001f0: e1da ccbc 7825 423e 3afe 603e 37ab 38bd
00000200: 8606 3fbe 1e0e 013d 0459 0f3d 336a 9fbd
00000210: fba2 433e 4a79 91bd 433c 41bd f251 043e
00000220: 7a02 2e3e 872e 553e a5c0 15bd 043b 063e
00000230: e783 a83c 3628 05be 7c8a 853d 6a2c 53bd
00000240: d578 aabd 1544 32be 5491 573e f64a d43d
00000250: 3f24 ec3d 1e9b 63be 3b28 3abe 1900 103e
00000260: 8f42 283e a494 8c3d 0a89 ad3d 530d 04be
00000270: 6e54 c63d a24b 8a3d 51b2 30be 9ad1 103d
00000280: 6758 913d 13aa c03d 96cf a33d 7ac7 96bd
00000290: 86ae 23be 5be2 1c3e d997 2dbe 6ad5 a23d
000002a0: 0f04 5cbe df4e 58be e773 0e3e f882 fbbd
000002b0: b87a 5fbd 3a7a 06bd 9fab 6bbe f7ce d53d
000002c0: 98ef 2d3e 6a28 b7bd 1428 003e 1479 1ebe
000002d0: 7b3a 10be af0a ea3d 45c0 afbd 2620 693c
000002e0: 45b6 41be af57 a73d 2941 f93d 5ddf d2bd
000002f0: a766 623d ee3f 4b3d d6ad 503c 1d76 783e
00000300: dfd2 a33e 74e9 b73e a532 633e e9dd e43d
00000310: 814d 373e d24b 603e 1ae4 d13e a593 8b3e
00000320: ee4e b33e 3d67 973e 4e00 003f 1a7e 923e
00000330: 4c7d b23e 730d 193e 77a1 a43e b956 f03d
00000340: 6e25 4c3e 40d6 833e b8d4 363e 79d8 793e
00000350: 8c7c 3e3e aa31 a13e b8f0 203e 428e 9e3e
00000360: 5edc 783e f462 2c3e e20b 383e 87b1 5d3c
00000370: 948f 773e cd15 003f eb72 ab3e 529f ae3e
00000380: c2d4 3e3e 4761 1c3e f16e ef3e 6367 433e
00000390: 884a a33e 726f 8d3e 9de1 5d3e 388b 2b3e
000003a0: a779 9a3e 1cdb 063e cbd2 833e 98d6 aa3e
000003b0: c0ec 373e fd32 b73e 9854 203e b0cb 993e
000003c0: 78a7 bd3e 4291 733e 0ad5 d43d bfcc 4c3e
000003d0: f22a bc3e 9ae7 903e 38ab 8e3e d2dd 7e3e
000003e0: f8f1 313e 697f 7f3e ce58 a33e 81be 253e
000003f0: d5b9 623e 69b2 a53e 60b8 ce3e 8322 a63e

lstm.bias_hh_l0 f4 [256]
0.20003815 0.31286824 0.19300774 0.10578403 0.35104758 0.2161125 0.43872306 0.15773603
0.3422044 0.26022962 0.5390509 0.18962407 0.37827566 0.17628105 0.20977762 0.24991854
0.3350307 0.16158408 0.15099446 0.13483837 0.27121118 0.32639 0.23193315 0.2952482
0.2670921 0.31271893 0.15694223 0.080344945 0.40592048 0.41689378 0.16371539 0.12823622
0.3068342 0.309761 0.2921172 0.28807077 0.31469145 0.16678447 0.28632694 0.2629292
0.10163691 0.12845929 0.22671793 0.23537356 0.31525895 0.17842408 0.29139847 0.4524609
0.12233679 0.26363778 0.21124084 0.16768001 0.3093668 0.48835236 0.17163183 0.44488397
0.24507779 0.15060423 0.20998205 0.25016946 0.28095233 0.19809386 0.20735049 0.27115697
-0.011674217 0.37180886 0.053417925 0.007357351 0.01838667 0.21133022 0.11748031 0.11889768
0.18715072 0.0377698 0.19930787 0.1728052 0.13428622 0.09931708 -0.07130448 -0.06359418
-0.06381134 0.16636121 0.08208928 -0.03102432 0.078616634 0.021464821 0.08829906 0.19067939
0.083314404 0.1487752 0.25408256 -0.012703853 0.25362575 0.058015656 0.23616573 0.17313851
0.20150176 -0.018404039 0.02951885 -0.0019596436 -0.00078188506 0.08776908 0.22571528 0.048016928
0.04618694 0.16329598 -0.03786446 0.098337434 0.22463708 0.16691127 0.05081105 -0.050910205
0.07763033 -0.07662069 -0.023137325 0.20133947 0.2492849 0.31225467 0.14638689 0.23706
0.075569764 0.1632581 0.14509052 0.053747248 0.014523006 -0.006519771 0.2608579 -0.03036713
-0.116913356 -0.02320601 -0.047441803 0.11667272 0.16317524 -0.054913294 -0.11862338 0.12686715
0.1609962 0.12651895 -0.08039537 0.1742622 -0.06887605 0.013376627 -0.001335739 -0.040959105
0.15478414 -0.20032369 0.24798314 0.100620195 0.01775226 -0.17403191 -0.17153735 -0.052575793
-0.01430873 0.15719147 0.013925534 -0.055411756 -0.0478358 0.1327505 -0.02823936 0.13424791
-0.11254617 -0.03176958 -0.038252186 0.049039956 -0.23701271 0.20332842 -0.044794057 -0.07243104
-0.058710806 -0.12712277 0.026964402 -0.049800724 -0.055355467 0.071982406 -0.1796164 0.18185484
0.18925115 -0.025559599 0.050880514 -0.28029865 -0.026855731 0.11074122 0.11166967 0.114823855
-0.18735896 0.1479771 0.046775296 0.00023065823 0.0791054 0.21752158 0.08596337 0.24366204
0.14516853 0.47114265 0.17101784 0.34091002 0.16480045 0.14080486 0.38088328 0.2945831
0.20039469 0.29312342 0.40739644 0.34084564 0.4525984 0.1843986 0.30415872 0.25514838
0.20971976 0.16677998 0.1449416 0.11724868 0.16736415 0.112077646 0.27121216 0.16668773
0.2786627 0.21123469 0.24521452 0.106007636 0.46305946 0.4880131 0.20001256 0.2577689
0.32307273 0.106568694 0.32946157 0.20980358 0.30573547 0.22379522 0.35098788 0.3095765
0.29617956 0.119108334 0.33954397 0.41681948 0.2315653 0.28350046 0.30156815 0.37135184
0.30965504 0.35532385 0.27902642 0.112378076 0.34001642 0.31975415 0.30219358 0.31455305
0.19156656 0.2908552 0.21249576 0.1652741 0.14733873 0.286916 0.33423823 0.3764542
00000000: cdd6 4c3e 4430 a03e d2a3 453e 4ca5 d83d
00000010: 82bc b33e 984c 5d3e 4fa0 e03e 8e85 213e
00000020: 6a35 af3e d13c 853e 3dff 093f d02c 423e
00000030: 59ad c13e 0583 343e f2cf 563e a5ea 7f3e
00000040: 2589 ab3e 4c76 253e 4b9e 1a3e 1213 0a3e
00000050: 31dc 8a3e 971c a73e e27f 6d3e c62a 973e
00000060: 4cc0 883e b21c a03e 77b5 203e e48b a43d
00000070: cfd4 cf3e 1a73 d53e 02a5 273e 5b50 033e
00000080: 5f19 9d3e fe98 9e3e 6390 953e 037e 933e
00000090: 3d1f a13e 8cc9 2a3e 7299 923e a89e 863e
000000a0: 0327 d03d d58a 033e bf28 683e c405 713e
000000b0: 9f69 a13e cdb4 363e 2e32 953e f5a8 e73e
000000c0: b68b fa3d 88fb 863e 854f 583e 4fb4 2b3e
000000d0: 5365 9e3e 5209 fa3e 41c0 2f3e d5c7 e33e
000000e0: acf5 7a3e ff37 1a3e 8905 573e 3616 803e
000000f0: fcd8 8f3e 1ed9 4a3e b053 543e 16d5 8a3e
00000100: 3745 3fbc bb5d be3e c1cc 5a3d ef15 f13b
00000110: a49f 963c f366 583e 8499 f03d a080 f33d
00000120: 70a4 3f3e 81b4 1a3d 5d17 4c3e d9f3 303e
00000130: 5482 093e c166 cb3d 1508 92bd aa3d 82bd
00000140: 85af 82bd 985a 2a3e 6d1e a83d b726 febc
00000150: c201 a13d fed6 af3c 23d6 b43d 7541 433e
00000160: bea0 aa3d 8758 183e 1c17 823e d223 50bc
00000170: 3cdb 813e d3a1 6d3d 6ed5 713e 394b 313e
00000180: 7a56 4e3e 11c4 96bc 84d1 f13c 5d6d 00bb
00000190: 6bf7 4cba 47c0 b33d e821 673e 66ad 443d
000001a0: 842e 3d3d 1037 273e c417 1bbd 2365 c93d
000001b0: 4307 663e caea 2a3e 3f1f 503d 3887 50bd
000001c0: a7fc 9e3d 4feb 9cbd 7d8a bdbc ef2b 4e3e
000001d0: 8a44 7f3e d8df 9f3e 72e6 153e dbbf 723e
000001e0: 52c4 9a3d 222d 273e 9c92 143e 1326 5c3d
000001f0: e7f1 6d3c cea3 d5bb 2b8f 853e 7dc4 f8bc
00000200: 4570 efbd 881a bebc 5652 42bd 1bf2 ee3d
00000210: 6917 273e c3ec 60bd d1f0 f2bd 76e9 013e
00000220: 30dc 243e 2f8e 013e 54a6 a4bd ca71 323e
00000230: e30e 8dbd a429 5b3c f713 afba bcc4 27bd
00000240: bc7f 1e3e a721 4dbe 4bef 7d3e f611 ce3d
00000250: 306d 913c 6c35 32be 7da7 2fbe b759 57bd
00000260: 2a6f 6abc cdf6 203e ec27 643c 70f7 62bd
00000270: 79ef 43bd bfef 073e 3b56 e7bc 4978 093e
00000280: 9b7e e6bd d220 02bd 53ae 1cbd 1fde 483d
00000290: 76b3 72be 5335 503e f979 37bd ba56 94bd
000002a0: be7a 70bd 792c 02be 73e4 dc3c d8fb 4bbd
000002b0: 6abc 62bd 836b 933d 5ded 37be 2838 3a3e
000002c0: 0ecb 413e 5d62 d1bc 1668 503d 4e83 8fbe
000002d0: 8d00 dcbc 4bcc e23d 11b3 e43d c528 eb3d
000002e0: 07db 3fbe 4f87 173e 7497 3f3d d9dc 7139
000002f0: 0302 a23d fabd 5e3e 900d b03d 8b82 793e
00000300: 0fa7 143e 9c39 f13e 4d1f 2f3e c28b ae3e
00000310: 73c1 283e 262f 103e 2203 c33e 99d3 963e
00000320: 4434 4d3e 4614 963e 4496 d03e 5283 ae3e
00000330: faba e73e fdd2 3c3e b1ba 9b3e cfa2 823e
00000340: c7c0 563e 5fc8 2a3e 926b 143e 1320 f03d
00000350: 8261 2b3e f788 e53d 52dc 8a3e 30b0 2a3e
00000360: e1ac 8e3e e84d 583e 8419 7b3e 881a d93d
00000370: 2116 ed3e dadc f93e 18d0 4c3e 49fa 833e
00000380: ca69 a53e b040 da3d 30af a83e c0d6 563e
00000390: 5c89 9c3e 932a 653e afb4 b33e d080 9e3e
000003a0: d9a4 973e 12ef f33d b5d8 ad3e 5d69 d53e
000003b0: 741f 6d3e f926 913e 2467 9a3e d421 be3e
000003c0: 1b8b 9e3e 02ed b53e 8ddc 8e3e 7a26 e63d
000003d0: a216 ae3e d1b6 a33e 1eb9 9a3e 190d a13e
000003e0: 062a 443e f9ea 943e 7d98 593e 9d3d 293e
000003f0: f7df 163e a7e6 923e 4621 ab3e 9bbe c03e

fc.weight f4 [5, 64]
-0.36410198 0.16190621 0.4370399 0.28154922 0.22778015 0.015255495 -0.4870693 0.3284828
0.11926671 -0.40989238 0.7204534 0.26757127 -0.38187346 0.27729604 0.3348385 0.13801633
0.3795374 0.13391057 -0.029898046 -0.35059848 0.25916246 -0.19518727 -0.03325812 -0.42703453
0.21283644 0.046102013 -0.19414176 0.19209588 0.24850325 -0.5190195 0.15108831 0.43618608
0.40658832 -0.42471737 -0.6567024 0.16441298 0.0856785 -0.23492323 -0.14725126 0.35386446
-0.16146152 -0.1526181 -0.61224276 -0.34731516 -0.34049913 -0.4090632 -0.25935957 -0.54296446
0.3140548 0.4509214 -0.11954197 -0.20522828 -0.24378785 -0.22062868 -0.4443453 0.0037470504
-0.2393985 -0.62666094 -0.48796928 0.31392568 -0.55834574 0.35962263 -0.3655064 -0.31549767
0.16446552 -0.31384957 0.6908118 0.13061209 0.11354073 0.4654941 -0.24152851 0.056378834
0.34735355 -0.11007466 -0.14202318 -0.41838035 0.32252014 -0.1883651 -0.37518042 -0.046095975
0.3391631 0.50571954 -0.06144856 0.21323283 0.4389408 0.084547155 0.32981056 -0.06575753
0.13031517 -0.043366157 0.21753232 -0.063662484 -0.34001744 -0.15808003 0.26483592 0.34180623
-0.3349577 0.13812427 -0.0067778584 -0.24009174 0.112961635 0.028334903 0.27698138 0.17505595
-0.13321497 -0.027437553 -0.25865644 -0.14827913 0.7024497 0.13246259 -0.09826314 -0.06726182
0.17836218 0.4302917 -0.4222937 0.13448633 -0.29251224 0.5182288 -0.7023714 -0.0077204527
0.14594527 -0.014593866 0.235931 0.3713361 -0.4229829 0.14879669 0.21665768 -0.06774754
0.24477199 0.14820021 -0.08449379 0.2788822 0.102452576 -0.29255506 -0.21555342 -0.037808865
-0.111384 0.21507685 -0.1732635 0.22466393 -0.24447611 -0.22065628 0.06860076 -0.34304175
0.23829882 -0.14824153 0.2289666 0.02326649 -0.30099007 -0.24658537 -0.18445791 0.15959205
-0.12604883 0.1889761 -0.112891674 -0.3289707 -0.014264982 0.2474127 -0.19747883 -0.26800463
-0.06949651 0.2355044 0.0027630571 -0.26465893 -0.14326794 0.15291522 0.14714283 0.22603427
-0.04741058 -0.04848002 0.080222346 -0.0650405 -0.42021793 -0.26320028 0.115054004 -0.09952527
0.118247494 -0.056754343 -0.12708624 -0.10062839 -0.076955296 -0.26753613 0.14389561 -0.19350632
-0.129098 -0.051863484 -0.18954661 0.014432264 0.41850668 -0.23369287 -0.17332599 0.04736349
-0.31344774 0.21162271 -0.15015225 -0.4411321 -0.46721718 -0.18324706 0.35277525 -0.47384694
0.4776545 0.21079092 -0.14520358 -0.65625745 0.38232258 0.3161903 0.09027253 0.508103
-0.35612476 -0.11657755 -0.3002391 0.06652484 -0.2892694 0.39947256 0.14740413 0.3187639
-0.401357 0.2695079 -0.09574409 0.40541086 0.05598054 0.15906493 -0.11007629 -0.31143793
-0.077134244 -0.24553357 0.368755 0.39383566 0.22887342 0.08487979 0.37525728 -0.36970255
0.52863914 0.28588003 0.11732695 0.50892186 0.2232874 0.2318828 0.3229343 0.2827942
-0.26839474 -0.2150786 0.22470711 0.36011595 0.5767723 0.25028393 0.21025285 -0.3764115
0.4257948 0.184964 0.08757289 -0.22098467 0.08259358 -0.35168827 0.019851502 0.009345592
00000000: 936b babe beca 253e b2c3 df3e 3827 903e
00000010: 333f 693e 2ff2 793c 2661 f9be e62e a83e
00000020: 1b42 f43d 6add d1be a26f 383f 1aff 883e
00000030: eb84 c3be bff9 8d3e f46f ab3e 2754 0d3e
00000040: ba52 c23e da1f 093e bfec f4bc a581 b3be
00000050: f1b0 843e 2cdf 47be ab39 08bd 45a4 dabe
00000060: ccf1 593e 77d5 3c3d 19cd 46be c8b4 443e
00000070: a377 7e3e 76de 04bf e5b6 1a3e c853 df3e
00000080: 582c d03e 8e74 d9be a61d 28bf e05b 283e
00000090: 3678 af3d b78f 70be 09c9 16be b92d b53e
000000a0: 2b56 25be eb47 1cbe f1bb 1cbf 4bd3 b1be
000000b0: e755 aebe bb70 d1be c7ca 84be b8ff 0abf
000000c0: cacb a03e 2bdf e63e 6cd2 f4bd 5d27 52be
000000d0: 86a3 79be 7cec 61be 3a81 e3be 1391 753b
000000e0: e124 75be da6c 20bf 1cd7 f9be deba a03e
000000f0: bfef 0ebf 7520 b83e a823 bbbe e988 a1be
00000100: a669 283e e4b0 a0be 0bd9 303f 2dbf 053e
00000110: 0b88 e83d 3e55 ee3e 4053 77be 7eed 663d
00000120: 53d8 b13e d36e e1bd 866e 11be f335 d6be
00000130: 5c21 a53e c8e2 40be a617 c0be 22cf 3cbd
00000140: c9a6 ad3e d676 013f 7cb1 7bbd b559 5a3e
00000150: d9bc e03e 0f27 ad3d eedc a83e e2ab 86bd
00000160: 5771 053e b6a0 31bd cbc0 5e3e 7a61 82bd
00000170: c416 aebe bbdf 21be 9398 873e 3a01 af3e
00000180: 937f abbe 7370 0d3e cc18 debb 9cda 75be
00000190: 6e58 e73d 991e e83c 81d0 8d3e de41 333e
000001a0: 8169 08be b8c4 e0bc 9e6e 84be 7cd6 17be
000001b0: bed3 333f 46a4 073e 2f3e c9bd 91c0 89bd
000001c0: 93a4 363e 324f dc3e e136 d8be c9b6 093e
000001d0: 2ac4 95be a5aa 043f 9dce 33bf dafb fcbb
000001e0: ad72 153e 1c1b 6fbc e597 713e c41f be3e
000001f0: 3791 d8be 295e 183e 83db 5d3e 39bf 8abd
00000200: 82a5 7a3e ccc1 173e 150b adbd a6c9 8e3e
00000210: a8d2 d13d c7c9 95be 09ba 5cbe 78dd 1abd
00000220: 4b1d e4bd 1b3d 5c3e fd6b 31be 4d0e 663e
00000230: f257 7abe b8f3 61be 8e7e 8c3d 2ba3 afbe
00000240: 9b04 743e a1cc 17be 3876 6a3e 5e99 be3c
00000250: 5f1b 9abe e080 7cbe 89e2 3cbe 196c 233e
00000260: f212 01be f382 413e c033 e7bd d96e a8be
00000270: acb7 69bc c159 7d3e e437 4abe e737 89be
00000280: 3054 8ebd 1128 713e 6814 353b 6081 87be
00000290: d5b4 12be cf95 1c3e 9cac 163e 8775 673e
000002a0: 9931 42bd fc92 46bd 9d4b a43d f433 85bd
000002b0: ce26 d7be 30c2 86be 6fa1 eb3d e8d3 cbbd
000002c0: be2b f23d 3e77 68bd e522 02be 4216 cebd
000002d0: bd9a 9dbd 7ffa 88be 5f59 133e 8526 46be
000002e0: 4432 04be ce6e 54bd 8218 42be 4d75 6c3c
000002f0: 8246 d63e 2f4d 6fbe 5e7c 31be 3800 423d
00000300: 397c a0be a0b3 583e 83c1 19be 11dc e1be
00000310: 1737 efbe 1ea5 3bbe f59e b43e 119c f2be
00000320: 218f f43e 93d9 573e 3fb0 14be 7d00 28bf
00000330: c9bf c33e b2e3 a13e cee0 b83d 0a13 023f
00000340: fc55 b6be 36c0 eebd f0b8 99be 2d3e 883d
00000350: 1e1b 94be ab87 cc3e 1cf1 163e 0635 a33e
00000360: aa7e cdbe f1fc 893e 7a15 c4bd 0392 cf3e
00000370: da4b 653d ebe1 223e ae6f e1bd cb74 9fbe
00000380: 8ff8 9dbd 276d 7bbe 75cd bc3e d4a4 c93e
00000390: cb5d 6a3e 75d5 ad3d b921 c03e a749 bdbe
000003a0: e554 073f de5e 923e 1d49 f03d b448 023f
000003b0: 74a5 643e af72 6d3e a557 a53e 67ca 903e
000003c0: 096b 89be 913d 5cbe 9f19 663e 1e61 b83e
000003d0: 59a7 133f 3725 803e 864c 573e 02b9 c0be
000003e0: c701 da3e 3467 3d3e 6a59 b33d ce49 62be
000003f0: d326 a93d 7c10 b4be 9e9f a23c 411e 193c

fc.bias f4 [5]
0.06613481 -0.06788033 0.13492279 -0.011848952 0.054558106
00000000: b071 873d d804 8bbd 3329 0a3e 1b22 42bc
00000010: 5278 5f3d
