code/model/rnn_posture_model2.pth (torch, 93110 bytes, 6 tensors)

lstm.weight_ih_l0 f4 [256, 21]
000000 7b 72 e3 bd b2 3f 14 3f a7 7a 64 be 4d 13 25 bd
       -0.1110582 0.5790969 -0.22312413 -0.04030161
000010 45 95 b8 be 2c 19 c3 be eb 25 79 3e 4a a5 fc 3e
       -0.36051384 -0.38105142 0.24330871 0.49344856
000020 8c 42 f1 3d 43 4d 08 3f ab 93 98 be f0 30 2c be
       0.11780271 0.5324289 -0.29800162 -0.16815543
000030 49 f5 f4 3d f3 44 31 3e f7 c5 fb be e3 2d e3 3e
       0.11960847 0.17311458 -0.49174473 0.44370946
000040 3e 41 8e 3d dc 0d b5 be c5 37 7f 3e 27 a9 4e be
       0.06946038 -0.35362136 0.24923618 -0.20181714
000050 4c c8 03 bf 95 4c 2d be d6 13 2b 3e 75 06 9d 3e
       -0.51477504 -0.16923745 0.16706786 0.3066899
000060 26 a3 1a bc 84 97 08 bf a7 e1 04 bf a1 7d 83 3c
       -0.009438312 -0.53356194 -0.5190682 0.016051115
000070 62 db 08 be 1b ef 30 3e d4 50 36 3e 83 64 f7 be
       -0.13364938 0.17278711 0.17804271 -0.48318872
000080 50 88 c4 be 91 d0 d2 3c e4 1c 6f be 1b ad a6 be
       -0.38385248 0.025734218 -0.23350865 -0.32553944
000090 81 4f 4f 3e b1 85 86 be 91 ce de be da 4d 11 3d
       0.20245172 -0.26273873 -0.43516973 0.035474636
0000a0 c8 69 c5 3c 8c ac d8 be 30 0e 80 bd a6 1d d3 3e
       0.024098292 -0.42319143 -0.06252706 0.41233557
0000b0 ba d5 66 3e 4f 0b db 3d fd ad 35 3e 3d 0a a2 be
       0.22542468 0.10695516 0.17742153 -0.31648436
0000c0 16 de 11 be 7a 55 96 3c 68 a4 e5 be c6 ac 8a 3c
       -0.14244875 0.018351305 -0.44851995 0.016928088
0000d0 83 87 91 3d f5 f0 77 be 18 48 34 be e3 a4 37 bd
       0.07105925 -0.24213012 -0.17605627 -0.044834983
0000e0 18 f4 77 be 8a 23 68 be 72 4b 53 bd ce a4 95 be
       -0.24214208 -0.22669807 -0.051585622 -0.29227298
0000f0 c4 97 3b be 44 28 c2 3d f9 f9 9d be 6a 1e b0 3f
       -0.18319613 0.09480336 -0.30854777 1.3759282
000100 50 e0 96 3f 3b 55 c5 be c8 df 16 3f 09 30 df be
       1.1787205 -0.38541588 0.58935213 -0.43591335
000110 68 95 09 bf 83 74 a1 3f 51 3e c7 3e 26 a4 0d 3c
       -0.537436 1.2613682 0.3891473 0.008645093
000120 47 e1 85 3f be ea 89 bd 7b 14 05 3d d5 e2 9c 3f
       1.0459374 -0.06734227 0.032490235 1.2256724
000130 d9 98 cb 3d a0 e5 ec 3d ed c4 7c 3f a2 7c 39 3d
       0.09941263 0.11567235 0.98737985 0.045284875
000140 d8 71 98 3b a7 cb 7a 3f 05 37 b7 be 14 4b 14 bc
       0.004652243 0.97967 -0.35784164 -0.009051103
000150 35 ff 5b 3e 30 d6 8a be b9 62 83 3f a9 53 15 be
       0.21484073 -0.27116537 1.0264503 -0.14582695
000160 88 43 72 3e ac d8 60 3d 7f 93 c3 3e 68 fa 36 be
       0.23658574 0.054894134 0.38198468 -0.1786896
000170 4c fc 50 3f fd fb 26 3e 0b df 83 be a4 d9 93 bd
       0.81634974 0.16307063 -0.25756106 -0.07219246
000180 95 6c b7 3e f1 c6 7c be e4 08 b3 3d c8 97 d1 3e
       0.3582503 -0.24685265 0.0874193 0.40936112
000190 81 44 da be c6 4f 90 bd 7b ae c9 3e 9e 0d 46 bb
       -0.4263039 -0.070464656 0.3939093 -0.0030220519
0001a0 84 d9 9c 3d b5 45 b4 be 3b 50 21 bd af 42 57 be
       0.07658675 -0.35209432 -0.039383154 -0.21021532
0001b0 c6 83 6f 3e ad c3 81 be 42 cf 1f 3d 65 37 62 bd
       0.23390111 -0.253446 0.039016016 -0.05522861
0001c0 7a a8 21 3f 55 17 49 be c5 ee a2 3d b2 4a d3 3e
       0.631477 -0.19637807 0.07955698 0.41267926
0001d0 9b 39 2c ba 87 47 7e be 46 47 3f 3f e5 4b f6 3d
       -0.0006569863 -0.24831973 0.7471813 0.120261945
0001e0 4e c6 a9 bd e7 53 0a 3f 4e d7 5f bd c9 ad 2b be
       -0.08289777 0.54034275 -0.05464869 -0.16765513
0001f0 ac 35 39 3f 52 eb 14 3e 0e 16 ca 3e 6f 63 11 3f
       0.7234752 0.14542893 0.3946995 0.5679235
000200 fd ae 62 3f 19 df 9b 3f e4 92 40 be 41 80 c2 3d
       0.8854826 1.2177459 -0.18806034 0.09497119
000210 db dd 40 3f 10 56 b6 3e 4d bd 34 3f 8d 16 77 3f
       0.75338525 0.35612535 0.7060135 0.96518785
000220 51 6c 32 bd ce 4d 3d 3d 93 37 51 3f ad a0 0b 3e
       -0.04356033 0.04621678 0.81725425 0.13635512
000230 d3 c7 9d 3e 08 af 56 3f 7e 60 5e bc 8d ac b3 3e
       0.30816516 0.83860826 -0.01357281 0.35092583
000240 54 97 50 3f 6e 96 c5 bd b9 65 73 3e a1 4e 8d 3f
       0.8148091 -0.09647833 0.23769273 1.1039621
000250 43 62 60 3f f8 ff 60 be 50 2c 24 3e 5d 12 c6 3c
       0.87649935 -0.21972644 0.16032529 0.024178678
000260 71 c9 38 be 8f ee 96 3f 14 39 3a 3f 83 e5 ad 3d
       -0.18045594 1.1791552 0.72743344 0.084910415
000270 07 38 75 3f e9 8b 10 3e 04 af 57 bd 91 b8 a7 3f
       0.95788616 0.14115871 -0.052657142 1.31032
000280 f9 3a 34 3f 1f c8 92 3e 20 1d 7c 3f ae 45 b6 3e
       0.70402485 0.28668305 0.9848194 0.35600036
000290 7e f7 1d 3e 4f 4f aa 3f 28 4a ec 3e c3 58 35 3e
       0.15426442 1.3305453 0.46150327 0.17709641
0002a0 c1 dd 8d be 31 ad 7d 3e 6d ca 9e 3e 90 dc 2c be
       -0.27708247 0.24773099 0.31013814 -0.16881013
0002b0 e5 37 70 bd 01 01 b8 be 1a ab ca 3d 40 cd e5 bd
       -0.058647055 -0.35938266 0.09895916 -0.11220789
0002c0 66 1b 03 3e be 39 b2 3d e3 24 7b be b7 99 1d be
       0.1280342 0.0870242 -0.2452579 -0.15390669
0002d0 dc 08 7a bd 99 5b eb bd 9a d9 86 be 96 42 89 3a
       -0.061043605 -0.1149208 -0.26337892 0.0010472115
0002e0 c1 76 35 be e0 31 bc be fc d0 3e bd c9 39 bd 3b
       -0.17721082 -0.36756802 -0.04658602 0.005774711
0002f0 2f c2 0f bf ab 6d ab 3f 96 ce ed 3e 02 09 1b 3e
       -0.56155676 1.3392843 0.46446675 0.15140155
000300 0b 29 0a 3f 38 b2 c9 be a7 d6 4c 3e 1e b8 9d 3f
       0.53968877 -0.39393783 0.20003758 1.2321813
000310 97 68 94 3d 3c be 00 bf 27 50 0d 3f e2 32 0f 3e
       0.072465114 -0.50290275 0.5520043 0.13984254
000320 bf cf 03 3d a9 94 8e 3f 8c 66 0a 3e e2 11 21 be
       0.032180544 1.1139117 0.13515681 -0.15729478
000330 5f 72 22 3f 95 9d b7 3e f9 89 28 be 53 18 5f 3f
       0.63455766 0.35862413 -0.16458882 0.8714649
000340 1d 99 c4 3e eb 0c 38 3d 9a e9 da 3d c4 65 04 3f
       0.38398066 0.044934195 0.10689087 0.5171778
000350 2a 6c 03 3f ec 04 5b 3e 75 05 9c bd f0 47 11 bf
       0.5133692 0.21388596 -0.07618228 -0.5675039
000360 03 fb 3e bc 4a 42 aa 3c 79 d6 ed 3d ae 51 0c 3e
       -0.011656526 0.020783562 0.11613173 0.13703033
000370 47 4b fd 3c c7 0e 5a be 90 e0 21 3e 85 aa 88 3c
       0.030919684 -0.212947 0.1580832 0.016682873
000380 25 a6 3a be 36 78 76 3d d6 59 3e 3d 0e b8 99 be
       -0.18227442 0.060173236 0.046472393 -0.30023235
000390 f3 6d 28 3d 68 75 7b bd 4e 44 95 be c6 1a fb 3e
       0.04112048 -0.061391264 -0.29153675 0.49043864
0003a0 f6 3f 4f be da d6 dd 3e 50 03 3d be 8c 59 93 3e
       -0.20239243 0.4332798 -0.18458295 0.28779256
0003b0 98 46 2d 3e b8 48 c3 3e 98 61 d4 3b e3 e2 2c 3d
       0.1692146 0.38141418 0.0064813606 0.042208564
0003c0 fe 88 1e be ce b2 5e 3e 46 7c 32 bb 7e 18 f3 3e
       -0.15481946 0.21747896 -0.0027234717 0.47479624
0003d0 9e 51 9a 3e 4f f0 0d bd 93 ae 82 3e 8b a3 a2 3e
       0.30140394 -0.034653004 0.25523815 0.31765398
0003e0 17 48 0e 3d 84 4b 00 3f 1a 02 44 3f 06 2c 18 be
       0.03473672 0.5011523 0.76565707 -0.14860544
0003f0 7f 6e a0 3e 77 a1 0f 3f c1 0d 9e 3e 4e e5 9a 3e
       0.31334302 0.5610575 0.30869868 0.3025307

lstm.weight_hh_l0 f4 [256, 64]
000000 f8 a9 44 be ba 62 9b bd 8d d5 cc be ec 9c 4b be
       -0.19205463 -0.0758719 -0.40006676 -0.1988408
000010 78 5b 08 bf c8 9f be be f4 34 8d be 4b 7e a7 3d
       -0.5326457 -0.37231278 -0.27579463 0.08178385
000020 ce fa 15 3c 93 c5 42 be 70 f4 01 3f e9 49 86 3c
       0.009154035 -0.19020681 0.5076361 0.016392665
000030 c5 b4 9e 3e 15 c7 bf 3e 3c 15 a1 3e f9 4f 34 be
       0.3099729 0.37456575 0.31461513 -0.17608632
000040 c9 d7 5e be 4c 62 e3 3d 30 e5 9c 3e 67 ba b1 3e
       -0.21762003 0.11102733 0.30643606 0.34712526
000050 ee 37 03 3f b3 19 52 3e 9d 8b 3b bd 11 42 b7 bd
       0.51257217 0.20517616 -0.045787442 -0.08948148
000060 3a 94 b7 3c 2f fb e3 3e 08 74 ac 3d 0d 86 f0 3d
       0.022409547 0.44527575 0.08420569 0.11744318
000070 b4 00 3e 3e 96 81 85 3e 6f f6 01 be b5 88 30 bf
       0.18554956 0.2607543 -0.12691663 -0.689586
000080 03 dc bf bd cb 26 36 3e d7 ee 43 be 91 a6 6b be
       -0.09368136 0.17788236 -0.19134079 -0.23012759
000090 77 66 bf 3e f1 67 cd 3e 7f cd b9 3e 9f 84 ef bd
       0.37382862 0.40118363 0.36289594 -0.11695217
0000a0 c8 11 1e be 44 70 f5 3a 57 5c 3a 3e 87 0a 72 be
       -0.1543647 0.0018725474 0.18199287 -0.23636828
0000b0 31 1c 3f be e4 65 83 3e 98 b5 8d 3e 55 01 9e 3d
       -0.18663098 0.25663674 0.27677608 0.07715098
0000c0 03 6d cb 3c ce 54 c8 3d 92 0a 9f 3e 59 be 61 be
       0.024832254 0.097818 0.31062752 -0.22045268
0000d0 51 0f 9c 3b fc 98 d1 3d 01 18 2d be c4 f4 9a be
       0.004762568 0.102342576 -0.16903688 -0.30264866
0000e0 97 3b dc 3c e3 c8 91 be 29 22 07 3f cd c9 7c be
       0.026883883 -0.28473577 0.527865 -0.24686356
0000f0 79 f6 84 3e f3 90 92 be b9 fd 20 3e 5f 65 a5 bd
       0.25969294 -0.28626212 0.15721788 -0.080759756
000100 8d d0 f9 be 6b e1 f2 be 1e 02 a7 be 05 77 06 bf
       -0.48791924 -0.47437605 -0.32618803 -0.5252536
000110 d6 39 79 be ef 25 71 be 22 22 20 3e 50 4e b0 be
       -0.24338469 -0.23549627 0.1563802 -0.34434748
000120 d2 3b cf 3e 88 1b 16 be f3 d6 14 be be 11 80 be
       0.40475327 -0.1465894 -0.14535122 -0.25013536
000130 2f 03 5e bd 11 7f 82 3e 09 aa 11 be 6f 60 de 3e
       -0.054202255 0.2548757 -0.1422502 0.43432948
000140 a9 7b 9b bd d8 24 bd 3b 37 ea e3 3e 1d e2 4b 3e
       -0.07591946 0.0057722144 0.4451463 0.19910474
000150 59 7c 3a 3e ab 00 ad 3e eb 5a d9 bd 10 f5 96 be
       0.18211497 0.33789572 -0.10613044 -0.29483843
000160 bc a1 b5 3e 3b 58 5d 3e 2a 25 d0 be ed bf 57 3e
       0.35474956 0.21615689 -0.40653354 0.21069308
000170 b0 02 05 bf 88 e6 9e be 40 83 c1 3e 8c 3d 37 be
       -0.51957226 -0.31035256 0.37795448 -0.17894572
000180 37 e8 8c be e0 38 9b be 43 c3 14 be 73 9c d2 be
       -0.27520916 -0.3031683 -0.14527611 -0.41134986
000190 7a fa d9 3e 41 0e 63 be 4a b5 f1 3d 25 67 91 3e
       0.4257391 -0.22173406 0.11802156 0.28399006
0001a0 a6 b8 e7 be 83 34 e4 3e 57 ed a5 3e e0 41 10 bd
       -0.45258063 0.44571313 0.32407638 -0.035219073
0001b0 6b 21 dc bd 94 48 cb 3e 14 33 0d 3e 38 2e 72 bd
       -0.107485615 0.3970381 0.13789016 -0.05912611
0001c0 a0 41 f8 3e 93 c8 39 3f 27 45 02 3e a7 11 bd be
       0.48487568 0.72571677 0.12721692 -0.3692753
0001d0 12 18 f4 bd ca 32 58 be ca 9e 82 3e 1a 16 a6 be
       -0.119186535 -0.21113124 0.2551177 -0.32438737
0001e0 2a 91 b0 be 19 5c f5 3e e0 1f 08 3e b2 3d 4e ba
       -0.3448575 0.47921827 0.1329341 -0.00078674697
0001f0 e8 a2 aa 3e 32 a1 93 be c0 d7 66 3e ab c3 59 be
       0.33327413 -0.2883392 0.2254324 -0.21266048
000200 21 cd b6 be 6f 1d ad be 11 d6 c1 be b6 5f 24 bf
       -0.35703376 -0.3381152 -0.37858632 -0.64208543
000210 ad bb 50 3f 3b cb f9 be b5 2f 0c 3f 61 13 d5 be
       0.8153637 -0.48787865 0.54760295 -0.41616347
000220 8c ba 02 3f 3c 9b 42 be a8 1a 94 3b 30 15 15 bf
       0.510659 -0.1900453 0.0045197792 -0.58235455
000230 a8 9d cd bd 11 40 ae 3e 5f 74 97 be 2f bf 6d 3d
       -0.10039836 0.34033254 -0.29580972 0.058043655
000240 29 7a f0 be d4 9b ff 3e cc 32 37 3f 6c 4f ba 3e
       -0.469682 0.49923575 0.71561885 0.3638872
000250 28 28 94 3e 5d 9f f1 3e 35 ec d7 3d d9 59 10 bf
       0.28936887 0.47191897 0.105431 -0.56387097
000260 94 6e fd 3e 32 03 1d 3d 25 2c 08 bf b1 da de 3e
       0.49498427 0.038333125 -0.5319236 0.43526223
000270 06 ca 84 bd 6f 6e 0b bf 7c c4 fb 3e f3 3d 4c be
       -0.064838454 -0.54465383 0.49173343 -0.19945507
000280 2c 05 12 bf 52 7f 65 bf 80 81 5c be 97 6c b5 be
       -0.5703914 -0.896474 -0.21533775 -0.3543441
000290 34 83 b9 3e 1a 7d c1 bd bc 62 6f 3e ad 1e eb 3e
       0.36232913 -0.09447689 0.23377508 0.4592184
0002a0 b7 7d d4 be 93 9b c8 3e 0f 16 e0 bd 82 b2 66 bd
       -0.41502163 0.39181194 -0.10941707 -0.056322582
0002b0 10 60 8d be 1e 0a 1d 3f 99 fb 3c be 52 71 93 be
       -0.27612352 0.6134356 -0.18455352 -0.28797394
0002c0 b0 a0 4f 3f ab 08 69 3e a2 e4 81 be 23 b9 e1 be
       0.81104565 0.22757213 -0.25369745 -0.4408656
0002d0 85 48 8e be fb f9 34 be 57 76 0f be 98 b8 31 3e
       -0.27789703 -0.17673485 -0.14009987 0.17355573
0002e0 79 53 00 bf 8a 4e f8 3e 22 f5 f9 be d1 3c f5 bd
       -0.5012737 0.4849742 -0.48819834 -0.119744904
0002f0 c5 24 c6 3e b5 b0 16 bf dc df cc 3e a1 6b 11 bf
       0.38699928 -0.58863384 0.4001454 -0.56804854
000300 3d 0c d5 be bd 55 8d be 95 04 98 be c5 f8 65 be
       -0.416109 -0.27604476 -0.29690996 -0.2245818
000310 16 88 56 3e c1 4b dc bb 62 13 68 3e 0f ec 84 be
       0.2095035 -0.0067228978 0.22663644 -0.25961348
000320 f9 c1 a2 3e e9 af 07 3c 58 ae 0e bd 04 81 79 be
       0.31788614 0.008281686 -0.034834236 -0.24365622
000330 82 ad af bd 7a 2d 98 3e e1 d6 fb bd 1c f7 44 3e
       -0.08578016 0.29722196 -0.12296844 0.1923489
000340 28 7a cf 3c 5c 02 de bd 28 23 13 3f 3b 7d b0 3e
       0.025326803 -0.10840294 0.5747552 0.34470543
000350 7d 66 b2 3e 46 19 d3 3e be d4 c8 be 26 53 8f be
       0.34843817 0.4123022 -0.3922481 -0.27993125
000360 8a f5 c2 3e 40 59 bc 3d a2 77 8f be d4 eb 0f be
       0.38077956 0.091967106 -0.2802096 -0.14054805
000370 8d 01 a8 be 67 87 ce bc 41 94 f7 3e 00 64 d8 be
       -0.32813683 -0.02521105 0.48355296 -0.42263794
000380 97 20 ce be 77 c4 d8 bd 7a d0 d2 bd 89 ca c7 bd
       -0.4025924 -0.10584348 -0.1029367 -0.097554274
000390 1e 96 b4 3e fe f7 96 b9 0c aa 39 be cc 05 34 3d
       0.3527078 -0.00028794998 -0.18131274 0.04395084
0003a0 23 b3 06 bf 4d 03 cd 3e 29 0b ef 3d c7 19 98 3d
       -0.5261709 0.4004158 0.116720505 0.07426792
0003b0 c2 a3 93 be 93 89 fc 3e 78 62 3a bd 7b 30 0d bd
       -0.28835875 0.4932371 -0.045504063 -0.034470063
0003c0 f5 f3 e5 3e 9a 5a c9 3e 2c 57 6e bc d1 eb 27 be
       0.44912687 0.39326936 -0.014547151 -0.1639855
0003d0 b5 12 56 3e 97 f7 f2 be 8a 73 42 bd 89 ba f6 be
       0.20905574 -0.4745452 -0.047473468 -0.4818919
0003e0 86 39 b2 be 99 6e 0d 3f 81 5a 45 be 7d a1 a1 be
       -0.34809512 0.55246884 -0.19272806 -0.31568518
0003f0 d3 9d 97 3e 30 df 0e be 40 fa f4 3d 88 3b dd be
       0.29612598 -0.13952327 0.11961794 -0.4320948

lstm.bias_ih_l0 f4 [256]
000000 81 03 73 3e 89 cb 7c 3e b8 5b ca 3e 0a a8 44 3e
       0.23731805 0.24687018 0.395231 0.19204727
000010 3d a3 0c 3f 3d fd d0 3e 7a 17 9c 3e f7 31 86 3e
       0.5493658 0.40818205 0.3048666 0.26209995
000020 ef 34 c2 3e 6f 44 8c 3e 51 21 c4 3e 09 21 1d 3e
       0.3793101 0.2739596 0.38306668 0.15344633
000030 a2 e7 85 3d 2a 19 cb 3e 22 b2 9d 3e f3 c4 a5 3e
       0.06538321 0.39667636 0.30799967 0.32376823
000040 78 c3 b7 3d 46 dc ea 3e b7 b8 01 3f 49 72 92 3e
       0.089728296 0.4587118 0.5067248 0.28602818
000050 8d 81 d0 3e 6f 89 8f 3e e0 aa b3 3e 83 74 a0 3e
       0.4072384 0.2803454 0.35091305 0.3133889
000060 5b f9 42 3e d8 92 c2 3e 72 b6 87 3e 40 0b d2 3e
       0.19040434 0.38002658 0.26506382 0.41024208
000070 dc 69 b9 3e 1b 95 8d 3e c4 6a 38 3e 99 cd 8d 3e
       0.36213577 0.2765282 0.18009478 0.2769592
000080 a8 6b a2 3e 53 2c a6 3e da 35 0a 3e 0d fd 01 3e
       0.3172276 0.32455692 0.13497105 0.12694187
000090 26 15 24 3e 8f 94 e9 3e 4d 2a 26 3f f3 ed ba 3e
       0.16023692 0.45621154 0.64908296 0.36509666
0000a0 d4 fa 02 3f f8 c5 de 3e 1f 97 c9 3d 7a aa c5 3e
       0.51163983 0.43510413 0.09843277 0.38606626
0000b0 e1 50 ff 3e 5c 07 83 3e 3b 5a 9c 3e a6 0b 76 3e
       0.49866393 0.25591552 0.3053759 0.24027881
0000c0 31 a3 9b 3e 6a f3 58 3e b6 50 44 3e bd 6a cb 3d
       0.30397943 0.21186605 0.19171414 0.09932468
0000d0 9b 98 c1 3e 65 f6 c9 3e cd 0d dd 3d 9f 9b d7 3e
       0.3781174 0.39445797 0.10793648 0.42110917
0000e0 2f d2 06 3f d8 f5 c7 3e 94 2b e5 3e ce 92 77 3e
       0.52664465 0.3905475 0.4475981 0.24177095
0000f0 79 08 a8 3e 65 76 6b 3e 31 9e 76 3e 22 8d 1e 3d
       0.32818964 0.22994383 0.24083783 0.038708813
000100 5e 09 7f 3d 8c 03 62 3d d3 44 3f 3e 00 cb 35 3e
       0.062264793 0.055179164 0.18678598 0.1775322
000110 79 d0 cd 3e 40 fb 27 3e 4f 47 a5 3d 0f 72 d3 3d
       0.40198115 0.16404438 0.08070242 0.10324489
000120 ad 13 38 bc f3 af 47 3d e3 44 1e be 15 cc dc bd
       -0.01123516 0.048751783 -0.15455966 -0.10781113
000130 9c 8e 22 be 68 8c 19 bd 6e ee 02 be b4 81 36 3e
       -0.15874714 -0.037487417 -0.12786266 0.17822915
000140 20 c0 1e 3e 5e 0b 19 3e 73 5c 2a 3e 41 fe 2b 3e
       0.15502977 0.14945742 0.16636829 0.16796209
000150 e2 a7 ae bd 3e fd 88 3d 45 d1 ec 3d ae ce d2 3c
       -0.08528115 0.06688927 0.115633525 0.025733318
000160 ae fe 92 bc 13 fe 19 3e 9d a7 9a 3c 31 f2 27 3d
       -0.017943706 0.15038328 0.018878752 0.041002456
000170 3e 2e 10 bd d6 69 d8 bd ce 2f 15 3d 09 b2 18 bd
       -0.03520035 -0.105670616 0.036422543 -0.037279163
000180 50 01 86 3e 9f 0d 84 3e bf b9 43 3e 62 6d 3e bc
       0.26172876 0.25791642 0.19113825 -0.011622759
000190 3a 2f 18 3d f5 32 04 3e c6 24 8a 3e db 96 85 3c
       0.037154414 0.12910064 0.2698118 0.016307285
0001a0 cb 08 12 3d 09 0e 03 3e f8 d3 1b bd e7 35 25 bd
       0.035652917 0.12798323 -0.038043946 -0.04033461
0001b0 e0 27 65 3e d7 5d a2 3d d0 f0 d9 bd 22 dc 0f be
       0.22378492 0.07928055 -0.106416345 -0.14048818
0001c0 48 57 df 3d 88 cd b6 3d 2b 00 8e bd 40 6e 11 3e
       0.109053195 0.08925921 -0.06933626 0.14202213
0001d0 05 99 91 3e 9a 3e 36 3e 78 6f a6 bc f2 74 a8 3e
       0.28437057 0.17797318 -0.020316824 0.32901722
0001e0 20 22 c1 bc fe a9 a6 3d b2 84 61 3e ea 63 ed bd
       -0.023575842 0.08137892 0.22023275 -0.11591323
0001f0 76 7a dc 3d a3 9d f7 3d e8 68 70 3e 2e 0d 13 3e
       0.10765545 0.12090614 0.23477519 0.14360496
000200 43 cf 9c be df 79 e4 bd d5 55 c7 bd f8 29 54 be
       -0.30626878 -0.111560576 -0.09733168 -0.20719135
000210 8d 10 0f be a7 17 37 be 65 30 e7 bc d8 ae 05 be
       -0.13971157 -0.17880116 -0.028221318 -0.13054979
000220 7c e5 07 3e 3f 5c 01 3d 41 51 af 3d 73 2e 33 bd
       0.13271135 0.031582113 0.0856042 -0.04374547
000230 58 80 8f bc e1 8c f3 3d db 1d 9f 3d e1 47 85 3c
       -0.017517254 0.11892105 0.07769366 0.016269626
000240 62 09 09 be 6d 25 d9 3d cc da 3c 3e 88 b3 e5 3d
       -0.13382486 0.106028415 0.1844284 0.112158835
000250 63 88 1a 3e 17 7b 4e 3e 42 27 9d bc 01 68 5c be
       0.1509109 0.20164143 -0.019183759 -0.2152405
000260 5a 61 32 3e b9 65 ac 3c 82 b1 df bd 6d d7 56 3d
       0.17419949 0.021044599 -0.10922529 0.05245154
000270 7c e6 37 3d d8 72 5d bd ae c3 28 3e 60 f9 31 be
       0.04489754 -0.0540646 0.16480896 -0.17380285
000280 82 be 2f be 63 70 ea bc 29 c3 01 be 95 1e 53 be
       -0.17162517 -0.028618043 -0.12672104 -0.20617135
000290 fa 20 ff 3d 5b 80 29 bc b2 6c b4 3d 12 9f 91 3d
       0.12457462 -0.010345544 0.088097945 0.071104184
0002a0 71 99 86 bd 14 15 a9 3d 31 f4 a8 3d e2 8b f8 bc
       -0.065722354 0.082559735 0.08249701 -0.030340139
0002b0 ee 14 53 bd 48 a9 56 3e 42 0d c8 3c 27 26 b0 bc
       -0.051533632 0.20963013 0.024420384 -0.021502567
0002c0 ec 1b 33 3e 83 6e ff 3c b7 ab 73 3c 38 33 45 be
       0.1749112 0.031180626 0.014872483 -0.1925782
0002d0 12 ea 0c be 40 5a b2 3d 29 ee 8f 3d 39 f4 a2 bd
       -0.13761166 0.0870862 0.07027847 -0.07956738
0002e0 4e 17 df bd c6 c1 fd 3d 15 3a 0c 3e 51 8f 0b be
       -0.10893117 0.12390475 0.13694032 -0.1362889
0002f0 6f b4 35 3e 33 f0 4d bd c9 3d 9e 3d 4b 3e 4b be
       0.17744611 -0.0502779 0.07726628 -0.19847982
000300 90 5a 65 3e 69 f1 99 3e 81 1f 84 3e 46 4a 95 3e
       0.22397828 0.30066994 0.25805286 0.2915823
000310 b0 22 1b 3f 81 db bd 3e f1 40 d1 3e f0 11 c7 3d
       0.60599804 0.3708153 0.4086986 0.09720218
000320 94 ac 58 3e 2a 0f e5 3e 68 ce c8 3e e4 83 8e 3e
       0.21159583 0.44738132 0.39219975 0.27835
000330 90 eb 3e 3e 8e 9d d9 3e 54 ee a2 3e 25 ff b8 3e
       0.18644547 0.42503017 0.31822455 0.3613216
000340 42 19 6d 3e f0 6f 1b 3f bb 92 b1 3e d7 70 93 3e
       0.23154166 0.6071768 0.3468226 0.28797027
000350 0c 10 bf 3e 13 e0 87 3e c1 62 7b 3e 61 77 9d 3e
       0.3731693 0.26538143 0.2454939 0.3075514
000360 fe 80 80 3e 6a 91 7d 3e 17 77 a1 3e b7 19 01 3f
       0.25098413 0.24762502 0.3153617 0.5042986
000370 ec 17 b2 3e 39 8e ea 3e 95 fb 3a 3e 8f c0 47 3e
       0.34783876 0.45811632 0.18260033 0.19507049
000380 a6 d1 c0 3e 83 c1 a8 3e 05 ca 0e 3e ce b3 5e 3e
       0.3765995 0.32960138 0.13944252 0.21748278
000390 e9 ed 39 3e f4 9c d0 3e 16 7b 86 3e d0 e0 e8 3e
       0.18157162 0.40744746 0.26265782 0.45484018
0003a0 28 61 ed 3e 14 1c ea 3e 08 8f 77 3e 6b c9 a9 3e
       0.46363187 0.45724547 0.24175656 0.33161482
0003b0 c5 c0 1e 3f 10 c4 54 3e 9a 36 c2 3e 9f 39 8e 3e
       0.6201289 0.20777917 0.37932283 0.27778336
0003c0 e6 7c 8c 3e 01 96 71 3e 91 c8 9c 3e fc a6 4c 3e
       0.2743904 0.23592378 0.3062177 0.19985574
0003d0 c3 9f cb 3e b3 23 d7 3e fa 42 47 3e 3e 55 e5 3e
       0.39770326 0.42019424 0.19459143 0.44791597
0003e0 e4 a4 e4 3e bf ee 7b 3e 4d f2 ef 3e 52 7c bb 3e
       0.44657052 0.24602793 0.46864548 0.36618286
0003f0 99 23 b1 3e 60 3b 9d 3e 8b 11 92 3e 1a 69 21 3c
       0.3459747 0.30709362 0.2852901 0.009851718

lstm.bias_hh_l0 f4 [256]
000000 73 dd 41 3e c9 35 32 3e 0b bf 8b 3e 15 2b 8d 3e
       0.18932132 0.1740333 0.27294192 0.2757193
000010 49 af 3a 3f ed af ac 3e 2f af 55 3e b7 a4 24 3e
       0.72923714 0.3372797 0.20867608 0.16078459
000020 54 3d 62 3e e1 42 9d 3e 21 b5 ca 3e d7 c8 49 3e
       0.22093707 0.30715087 0.39591315 0.1970552
000030 2a e2 d4 3d e4 6e b0 3e 81 0b 29 3e 97 81 a1 3e
       0.103947 0.34459603 0.16508295 0.31544182
000040 10 fa 17 3e c4 df 16 3f 9e 9d 94 3e 87 7a 78 3e
       0.14841485 0.5893519 0.29026502 0.2426549
000050 98 40 d5 3e 7c d8 91 3e 24 4a b8 3e 99 10 cc 3d
       0.41650844 0.28485477 0.35994065 0.09964103
000060 9d 6a 90 3e b8 0b d3 3e a9 98 8f 3e 62 3a dc 3e
       0.2820634 0.41219878 0.28046158 0.43013293
000070 b0 38 98 3e fe 7a 77 3e 1c f9 7e 3e d3 39 90 3e
       0.2973075 0.24168012 0.24899715 0.28169116
000080 c6 8e d8 3e b7 57 83 3e 41 d5 ce 3d 84 86 a2 3e
       0.42296427 0.2565286 0.10099269 0.31743252
000090 b0 4c b3 3e cd 63 bb 3e 54 c9 07 3f 0b c6 84 3e
       0.35019445 0.3659958 0.5304158 0.25932345
0000a0 c2 0d ba 3e 4e 3a b1 3e b2 9e ff 3c 70 8b ea 3e
       0.3633862 0.34614795 0.031203602 0.45809507
0000b0 ce 54 10 3f ba 2b 33 3e 47 b5 ac 3e 8c ed 6d 3e
       0.563794 0.17497149 0.33732054 0.23235148
0000c0 ee 88 78 3e 76 84 aa 3e 2a ed c6 3e ef 8d 2f 3e
       0.24270985 0.33304185 0.38852817 0.17143987
0000d0 ed 7d ae 3e 6b 73 d9 3e 9f 7e 4a 3e 67 75 dc 3e
       0.3408045 0.4247087 0.19774865 0.4305832
0000e0 8f 67 07 3f 5e 4d 5a 3e bf 49 06 3f 06 eb 39 3e
       0.5289239 0.21318576 0.5245628 0.1815606
0000f0 84 2e 71 3e f1 dc b7 3e a9 d5 6b 3e 3b 04 90 3d
       0.235529 0.35910752 0.23030724 0.07032057
000100 2a 39 62 3c 95 d7 ab 3d 85 08 a9 3c dd 47 2e bd
       0.013807574 0.083907284 0.020633945 -0.042549003
000110 45 dd 0f 3f 64 ca d9 3d 15 5d de 3d fc ce 14 3d
       0.56197006 0.10634306 0.10857598 0.03633021
000120 3e 23 98 3d 5e 01 a3 3d 2b d7 8a bd 49 dc 4a 3c
       0.07428597 0.07959245 -0.06779321 0.012381622
000130 22 9a d9 bd e5 68 2b 3e de 34 09 bd 08 52 36 3e
       -0.106251016 0.16739233 -0.033497684 0.1780473
000140 a1 1a 4c 3d 68 e4 7d bc 57 be 15 3e 92 f4 93 3d
       0.049830083 -0.015496351 0.1462339 0.072243825
000150 b4 80 93 bc 31 d2 51 bc 7d bd 3b 3e 6f bf 50 3d
       -0.018005706 -0.012806461 0.18334003 0.050963815
000160 25 38 fe 3c 44 0f fc 3d c3 a3 ab 3c 35 20 c0 bb
       0.031032631 0.12307599 0.020952111 -0.0058632144
000170 a2 93 3c 3d 1c c3 e5 bc a5 8f 92 bd bb b1 af bd
       0.04603923 -0.028047137 -0.07156304 -0.08578821
000180 65 20 15 3e 27 9f c1 3d 83 bc 84 3e 37 32 52 3d
       0.14563139 0.09454184 0.25925073 0.05131742
000190 10 1d e2 3d 83 8e 97 3d 98 d4 b6 3e 75 73 0f 3e
       0.110406995 0.07400229 0.3570907 0.14008887
0001a0 e1 e4 81 3e 0a c3 7a 3e fa 89 64 3d 33 07 3a 3e
       0.25369933 0.24488464 0.055795647 0.18166809
0001b0 84 77 da 3e c1 6e db 3d 95 7b 03 3d a1 c9 9a bd
       0.42669308 0.10714484 0.03210028 -0.07557989
0001c0 83 4b 6e 3d 37 07 04 3e 8e bd f1 bd e2 60 5f 3e
       0.058177482 0.12893377 -0.11803733 0.21814302
0001d0 e5 36 87 3d ea 7a cc 3d 07 1b 20 be 80 de ce 3e
       0.06602267 0.099843815 -0.1563531 0.4040413
0001e0 a5 cb 88 bd 62 cf 8b 3d f6 33 49 3e 90 1c 10 be
       -0.06679467 0.068266645 0.19648728 -0.14073396
0001f0 a4 24 ed 3d 2b fe 17 3e 46 e7 44 3e fe bd 12 3e
       0.11579254 0.14843051 0.19228849 0.14330289
000200 ee 4a 7d be e5 2f 33 be 37 78 a5 bd 85 d3 e9 bd
       -0.24735615 -0.17498739 -0.0807957 -0.11417297
000210 79 de c0 3d b8 33 d1 bd de cf ae 3d 54 37 06 be
       0.09417433 -0.10214943 0.08535741 -0.13107044
000220 ef 1e 80 3d c7 97 34 be 68 c4 54 bd 63 b1 2f be
       0.062559 -0.17636023 -0.05194512 -0.17157511
000230 49 d2 ec 3d 2c 03 5e 3e 57 c3 ad bd 49 69 25 bd
       0.11563546 0.21680897 -0.08484524 -0.04038361
000240 0f e8 55 bd af e6 1b bc 1d cb f3 3d 80 99 2b 3e
       -0.05222326 -0.0095154485 0.11903975 0.16757774
000250 a1 c2 9a bd db 72 97 3d cc 1f 89 3d 51 88 64 be
       -0.07556654 0.07394954 0.06695518 -0.22317626
000260 73 20 41 3d 90 a2 36 3e bc 05 b4 bd 69 2f 0f 3e
       0.047150087 0.1783545 -0.08790156 0.1398293
000270 9c 6e e5 bd 68 76 39 bd 4a a6 ad 3d c4 61 5e bd
       -0.11202738 -0.045278937 0.08478983 -0.054292455
000280 98 45 05 be 92 f9 e0 bd 14 56 00 be 89 7e 29 be
       -0.13014829 -0.10985102 -0.12532836 -0.16552176
000290 92 2c b5 3d 3e ae 8f 3d e4 6b 62 3e f8 fa 9a 3c
       0.08846392 0.07015656 0.2211147 0.0189185
0002a0 0c ef 40 be 7b 10 02 bc d3 f1 e0 3d 5c 69 b0 bc
       -0.18841189 -0.0079385 0.10983624 -0.021534614
0002b0 32 d9 80 3c 41 bf 95 3d 86 24 ac bc a7 0c 98 bd
       0.015728567 0.073118694 -0.02101351 -0.07424288
0002c0 3c 20 8c 3d 04 89 e6 3d ff 34 37 3d ac 78 5c be
       0.06842086 0.112566024 0.044728275 -0.21530408
0002d0 b1 1e ad 3b 58 fc f0 bd 41 e2 2f bd e0 e4 1e bd
       0.0052831997 -0.11766881 -0.042940382 -0.03879249
0002e0 9c 21 e4 bd f6 86 b8 bc c0 c5 d4 bd ff 31 76 3d
       -0.11139223 -0.022525292 -0.1038928 0.060106274
0002f0 cf 15 13 3e 85 13 63 be 0b 2e 29 3e fd e0 10 be
       0.14363788 -0.22175415 0.1652147 -0.14148326
000300 4a f1 80 3e 95 24 5a 3e fc c5 74 3e 79 d3 47 3e
       0.2518409 0.21303017 0.2390365 0.19514264
000310 88 e0 0d 3f 3b 15 9c 3e 3b 17 db 3e 7c 67 7a 3e
       0.5542073 0.30484948 0.4279116 0.24453539
000320 ba 81 b0 3e 46 cd a4 3e f7 d4 12 3f 5c b7 a7 3e
       0.34473974 0.3218786 0.5735621 0.3275708
000330 96 a8 5e 3e 9a 11 ea 3e 24 2d b9 3e 9e 14 96 3e
       0.21743998 0.45716554 0.36167252 0.29312605
000340 72 a7 04 3e f3 6c 14 3f c5 fd a9 3e bb 26 6e 3e
       0.129545 0.57978743 0.33201423 0.23256962
000350 e6 be 37 3e f6 bb e3 3e 79 53 a5 3e ed 45 c6 3d
       0.17943916 0.4447934 0.32290247 0.09681306
000360 ed 83 60 3e e2 b0 94 3e 83 f8 46 3e b2 24 8c 3e
       0.21925326 0.290412 0.19430737 0.27371746
000370 55 ed a6 3e 53 70 e6 3e db 97 3f 3e 9a 06 ad 3e
       0.32602945 0.45007572 0.18710272 0.337941
000380 10 d9 87 3e 47 bc dc 3e 87 65 15 3e e0 2c 42 3e
       0.26532793 0.43112394 0.14589511 0.18962431
000390 bd d4 bb 3e 2c f9 ca 3e b5 b6 f4 3e 38 5b 9f 3e
       0.36685744 0.39643228 0.47795644 0.31124282
0003a0 cb 06 12 3f 06 bd e2 3e 25 68 03 3e ac 3d 38 3e
       0.57041615 0.44284838 0.12832697 0.17992276
0003b0 08 14 31 3f b6 c3 4f 3e 30 9b b4 3e 9f 68 92 3e
       0.6917119 0.20289502 0.3527465 0.28595445
0003c0 c8 7c 6e 3e 7b 7d 8b 3e 59 bb 87 3e 2a 0e 4c 3e
       0.23289788 0.27244172 0.26510122 0.19927278
0003d0 af 25 a6 3e f9 47 e2 3e e4 60 48 3e ec c6 c6 3e
       0.32450625 0.44195536 0.19568211 0.3882364
0003e0 f1 e5 15 3f 91 be 73 3e 79 d3 21 3f 03 ce 62 3e
       0.5855399 0.23803164 0.63213307 0.221489
0003f0 39 fc c9 3e b4 9b c7 3e 85 8f a0 3e fc f0 b8 3d
       0.39450243 0.3898598 0.31359497 0.09030339

fc.weight f4 [5, 64]
000000 d9 09 4c be 67 be 1b be 38 6d 84 be dc 0c 9c be
       -0.19925632 -0.15209351 -0.25864577 -0.3047856
000010 ae 3a 16 bf 88 fc 71 3f 4d b4 f3 be f4 df 9a be
       -0.5868329 0.9452596 -0.47598496 -0.30248988
000020 a0 a8 22 3e 9d 1c 04 bf 76 0a 85 bf 61 93 9f be
       0.15884638 -0.5160616 -1.0393817 -0.3116713
000030 95 14 0f bd 20 43 2e bf 92 59 23 bf 35 37 43 3e
       -0.034931738 -0.68071175 -0.6380855 0.19064029
000040 5f 58 42 3e a4 21 35 bf a6 35 23 bf ef 64 ae bf
       0.18979023 -0.70754457 -0.63753736 -1.3624552
000050 58 83 b2 be b8 fe cf 3e d1 8a c0 be ae 1b de bd
       -0.34865832 0.40624022 -0.3760591 -0.10845123
000060 54 9d a4 3c 0b e1 2f bf 00 ce 55 bf 66 b2 20 bf
       0.020094551 -0.68702763 -0.83517456 -0.62772214
000070 60 b3 1b bf bd 69 7b bf 57 8f 1d 3e ca 87 48 3f
       -0.6082058 -0.9820822 0.15386711 0.783322
000080 12 c2 08 3f 97 c2 16 3f c9 2d ab 3e 3c fd 77 3d
       0.5342113 0.5889067 0.3343337 0.060544237
000090 cb da 0c bf f5 9b 42 bf 3e a3 9c bd 65 0e 3b 3f
       -0.5502135 -0.7601922 -0.076483235 0.7306884
0000a0 24 ac 3d be af 3d 7b 3e 61 63 b7 3b 93 ab ca 3e
       -0.18522698 0.24535249 0.0055965637 0.39584026
0000b0 03 f8 8f 3f 85 d1 ed be c2 e5 22 bf 4d 5b ed be
       1.1247562 -0.46448913 -0.6363183 -0.4635872
0000c0 4c 08 25 bf 97 ee 9d 3e e6 ea 9b be be 27 86 be
       -0.64465785 0.30846092 -0.3045265 -0.26202196
0000d0 66 de 88 3e 48 fa c3 be 15 10 47 3e 14 5c d0 be
       0.26732177 -0.38276887 0.19439729 -0.4069525
0000e0 f9 b7 1f bf cf ff 31 3f fb ff fe be 42 ce 25 3f
       -0.62390095 0.6953096 -0.49804673 0.6476785
0000f0 61 ea 24 bf 50 7a 34 3f f7 dc 6e bf df b0 b1 3e
       -0.64420134 0.70499134 -0.93305916 0.34705254
000100 a7 e9 af 3c 4b dc 45 3e d2 f1 b2 3e df cf e6 be
       0.021473719 0.19322316 0.3495012 -0.45080468
000110 a6 eb ee 3e 73 22 7c 3e a7 44 a8 3e 97 af 10 bf
       0.4666416 0.24622516 0.32864878 -0.5651793
000120 a6 9d 0f be 29 99 85 3d ec 73 9b be 61 62 f0 3c
       -0.14024982 0.065233536 -0.3036188 0.029343786
000130 90 b3 1a 3e cb 4d 62 bf 39 25 f2 be 13 c2 0f bf
       0.1510756 -0.8839995 -0.47294024 -0.5615551
000140 0d b8 8c be f4 dd 05 bf 35 56 02 3f 21 01 8f bd
       -0.2748417 -0.522918 0.5091279 -0.06982637
000150 2d 99 3e bf fd a4 b2 3d 1a 64 0e bf 89 95 20 be
       -0.7445248 0.08722875 -0.5562149 -0.15682043
000160 6e d1 e2 bd 78 99 dd 3e 6e 29 a6 3e 9b 57 a2 bf
       -0.11075102 0.4328115 0.32453483 -1.2682985
000170 40 cf 8b be 12 a1 ce 3e f9 71 bc 3e bb 1b 79 be
       -0.27306557 0.40357262 0.36805704 -0.24326985
000180 da 59 3a be 63 f3 4c 3f c7 e5 86 3e 43 48 07 be
       -0.18198338 0.8005888 0.2634718 -0.1321116
000190 c3 2a 2f be c9 9c f0 3e e1 20 0b bf 2c be 06 bd
       -0.17106156 0.46994618 -0.54347044 -0.032896206
0001a0 17 59 11 3f 57 e4 dc be 8f 76 60 bc 5d cc 37 bf
       0.56776565 -0.4314296 -0.013700142 -0.7179621
0001b0 45 f9 95 be 31 a5 89 be 2e ea 02 3e 55 9d 65 be
       -0.2929174 -0.26883844 0.12784645 -0.22423299
0001c0 d4 45 6d bd 5c 1f ca 3e 81 45 06 3e f6 07 cd 3d
       -0.05792792 0.3947705 0.13112451 0.10011284
0001d0 c1 89 be bd 71 89 4b 3e 3b ee 8d 3e 38 32 e4 3e
       -0.09303618 0.19876648 0.27720818 0.44569564
0001e0 ea 02 44 bd c3 c4 a4 3e 8d aa 6f 3e fb c5 14 3f
       -0.04785434 0.32181367 0.23404904 0.58114594
0001f0 d3 42 b4 3e c9 68 15 3f 4a bf 2f 3e 07 31 9c be
       0.35207233 0.58363014 0.17162815 -0.30506155
000200 ac 39 94 be 3f cd 9e be cb 10 81 bd 48 38 f1 bd
       -0.2895025 -0.31015965 -0.06302031 -0.11778313
000210 9f 53 26 bf 6e 10 9b be ec a3 db be 1c 9c a2 3e
       -0.64971346 -0.30285972 -0.428985 0.31759727
000220 5c c1 3d 3e 8f 28 c4 3e c7 45 93 bc 69 95 47 bd
       0.18530792 0.38312194 -0.017977608 -0.048726473
000230 08 41 ed 3d a0 ab 16 3f ec b0 b3 3e 48 d6 d2 3e
       0.11584669 0.5885563 0.35095918 0.4117911
000240 07 ab 23 be 27 42 fb 3d d5 8a b5 be 0e 05 06 3e
       -0.1598321 0.12268477 -0.35457483 0.13087866
000250 40 b8 94 3e 78 2e 98 3d 8d 23 dc 3e fb 7f 29 be
       0.29046822 0.07430738 0.42995873 -0.16552727
000260 99 d4 92 3e 28 e6 5f 3e f9 17 4b 3c fe 6f ba 3e
       0.28677824 0.21865141 0.012395852 0.36413568
000270 a7 46 a7 3d 7f 4d c2 3d ee c1 a0 be 01 ce e4 3e
       0.08167773 0.094874375 -0.31397957 0.44688419
000280 87 63 2f 3e ab 78 b6 bd 96 2c 9e be 71 97 66 be
       0.1712781 -0.08909734 -0.3089339 -0.22518708
000290 a7 17 dc 3d 17 86 87 be 23 29 6f 3e 5e 53 c7 bd
       0.10746699 -0.2646949 0.23355536 -0.09732698
0002a0 81 9a 02 bf d0 60 14 3f b1 56 fd 3d d8 d0 a3 3e
       -0.51017004 0.57960224 0.12370051 0.31995273
0002b0 26 ab 8b be 6e 48 64 3c 95 ea 78 3c f3 bc 9d bd
       -0.27279013 0.013933284 0.015192647 -0.07702055
0002c0 3e d8 81 be 80 fa de be e0 94 88 3e c4 0f 21 be
       -0.25360292 -0.4355049 0.26676083 -0.1572867
0002d0 99 c9 52 be cb c4 3c be 3a 65 b9 3e e2 cc ce be
       -0.20584716 -0.18434446 0.36210042 -0.40390688
0002e0 bc 65 8c bd 0e bd e5 be 73 60 95 3e be a6 8b bc
       -0.06855342 -0.448708 0.29175147 -0.017047282
0002f0 d7 78 3a 3e f8 08 57 be d5 63 9c 3e 96 92 06 be
       0.18210159 -0.20999515 0.30544916 -0.13141856
000300 33 34 5b 3c 8b aa 58 3f 4d c9 f0 be 67 d2 34 3e
       0.0133791445 0.8463523 -0.4702858 0.17658387
000310 6d 2e 1f 3f 52 c5 93 be e2 ec 0d 3f 97 d2 06 3f
       0.62180215 -0.2886148 0.5543958 0.52665085
000320 a2 37 79 bf f9 e9 01 3f 9e 86 f6 3e 13 09 50 3f
       -0.97350514 0.5074764 0.4814958 0.81263846
000330 5e ef 29 bf 46 b3 bd 3e d2 74 e4 3e 87 d5 89 bd
       -0.6638087 0.37050837 0.44620377 -0.0673018
000340 51 05 09 3f 1d 77 2f 3f ba 27 d5 3e e2 46 b6 3e
       0.5352374 0.6854113 0.4163187 0.35600954
000350 e6 ec dd 3e 5f f9 39 bf 04 39 d7 3d 7a 82 39 3f
       0.43344802 -0.72646135 0.10508922 0.72464716
000360 97 53 35 bf 44 fb 40 3e c4 2e 00 be 07 c3 cb 3e
       -0.7083067 0.1884585 -0.1251784 0.39797232
000370 4c 84 6c 3e 1a 0a 12 3f 37 6a 0d bf 8d 83 0e bf
       0.23097342 0.57046664 -0.55240196 -0.5566948
000380 6e 34 b7 bd c3 4b ad be 70 43 8c 3e c1 04 92 3e
       -0.08945547 -0.33846864 0.273952 0.28519252
000390 7a ab c9 3e 81 a1 24 be bf ec 33 be e6 de 99 be
       0.3938864 -0.16077234 -0.1757078 -0.3005287
0003a0 53 03 3a 3e 07 7a 63 bc 5e 36 10 bf e2 de 67 3e
       0.1816533 -0.013884074 -0.5633296 0.22643617
0003b0 5d 4e da be df ad 9f 3e 6e b8 1b 3f 5b cf 22 3f
       -0.4263791 0.3118734 0.6082829 0.6359765
0003c0 d2 38 5f 3e a8 08 92 3e 78 e6 0b be cc 66 3b 3f
       0.21799019 0.2852223 -0.13662136 0.7320373
0003d0 be b8 e7 3e 77 a6 92 be 8d 23 69 bf 25 d0 0e be
       0.45258135 -0.28642628 -0.9106987 -0.13946588
0003e0 52 75 1d 3f b4 68 76 be ff 98 e7 3e ea 4e 0b bf
       0.6150714 -0.24063379 0.45233914 -0.5441729
0003f0 51 4b 74 3e a5 e1 9b bd 5b b5 92 3e 47 7a 81 3e
       0.23856856 -0.07611398 0.28653988 0.25288603

fc.bias f4 [5]
000000 02 fd 4b ba ae 82 9c 3d 13 b1 b4 bc eb 11 65 3d
       -0.00077815366 0.07642113 -0.022057092 0.05592529
000010 6b 36 27 3d
       0.04082338
